<?xml version="1.0"?>
<net name="Model0" version="11">
	<layers>
		<layer id="0" name="input_ids" type="Parameter" version="opset1">
			<data shape="?,?" element_type="i64" />
			<output>
				<port id="0" precision="I64" names="input_ids">
					<dim>-1</dim>
					<dim>-1</dim>
				</port>
			</output>
		</layer>
		<layer id="1" name="attention_mask" type="Parameter" version="opset1">
			<data shape="?,?" element_type="i64" />
			<output>
				<port id="0" precision="I64" names="attention_mask">
					<dim>-1</dim>
					<dim>-1</dim>
				</port>
			</output>
		</layer>
		<layer id="2" name="position_ids" type="Parameter" version="opset1">
			<data shape="?,?" element_type="i64" />
			<output>
				<port id="0" precision="I64" names="position_ids">
					<dim>-1</dim>
					<dim>-1</dim>
				</port>
			</output>
		</layer>
		<layer id="3" name="beam_idx" type="Parameter" version="opset1">
			<data shape="?" element_type="i32" />
			<output>
				<port id="0" precision="I32" names="beam_idx">
					<dim>-1</dim>
				</port>
			</output>
		</layer>
		<layer id="4" name="Constant_114696" type="Const" version="opset1">
			<data element_type="f32" shape="" offset="0" size="4" />
			<output>
				<port id="0" precision="FP32" />
			</output>
		</layer>
		<layer id="5" name="ShapeOf_114682" type="ShapeOf" version="opset3">
			<data output_type="i64" />
			<input>
				<port id="0" precision="I64">
					<dim>-1</dim>
					<dim>-1</dim>
				</port>
			</input>
			<output>
				<port id="1" precision="I64">
					<dim>2</dim>
				</port>
			</output>
		</layer>
		<layer id="6" name="Constant_114684" type="Const" version="opset1">
			<data element_type="i64" shape="1" offset="4" size="8" />
			<output>
				<port id="0" precision="I64">
					<dim>1</dim>
				</port>
			</output>
		</layer>
		<layer id="7" name="Constant_114686" type="Const" version="opset1">
			<data element_type="i64" shape="" offset="4" size="8" />
			<output>
				<port id="0" precision="I64" />
			</output>
		</layer>
		<layer id="8" name="Gather_114687" type="Gather" version="opset8">
			<data batch_dims="0" />
			<input>
				<port id="0" precision="I64">
					<dim>2</dim>
				</port>
				<port id="1" precision="I64">
					<dim>1</dim>
				</port>
				<port id="2" precision="I64" />
			</input>
			<output>
				<port id="3" precision="I64">
					<dim>1</dim>
				</port>
			</output>
		</layer>
		<layer id="9" name="Constant_114689" type="Const" version="opset1">
			<data element_type="i64" shape="1" offset="12" size="8" />
			<output>
				<port id="0" precision="I64">
					<dim>1</dim>
				</port>
			</output>
		</layer>
		<layer id="10" name="Constant_114691" type="Const" version="opset1">
			<data element_type="i64" shape="1" offset="4" size="8" />
			<output>
				<port id="0" precision="I64">
					<dim>1</dim>
				</port>
			</output>
		</layer>
		<layer id="11" name="Constant_114693" type="Const" version="opset1">
			<data element_type="i64" shape="1" offset="20" size="8" />
			<output>
				<port id="0" precision="I64">
					<dim>1</dim>
				</port>
			</output>
		</layer>
		<layer id="12" name="Concat_114694" type="Concat" version="opset1">
			<data axis="0" />
			<input>
				<port id="0" precision="I64">
					<dim>1</dim>
				</port>
				<port id="1" precision="I64">
					<dim>1</dim>
				</port>
				<port id="2" precision="I64">
					<dim>1</dim>
				</port>
				<port id="3" precision="I64">
					<dim>1</dim>
				</port>
			</input>
			<output>
				<port id="4" precision="I64">
					<dim>4</dim>
				</port>
			</output>
		</layer>
		<layer id="13" name="Broadcast_114697" type="Broadcast" version="opset3">
			<data mode="numpy" />
			<input>
				<port id="0" precision="FP32" />
				<port id="1" precision="I64">
					<dim>4</dim>
				</port>
			</input>
			<output>
				<port id="2" precision="FP32">
					<dim>-1</dim>
					<dim>8</dim>
					<dim>0</dim>
					<dim>128</dim>
				</port>
			</output>
		</layer>
		<layer id="14" name="ReadValue_114238" type="ReadValue" version="opset6">
			<data variable_id="past_key_values.9.valuepresent.9.value" variable_type="f32" variable_shape="?,8,?,128" />
			<input>
				<port id="0" precision="FP32">
					<dim>-1</dim>
					<dim>8</dim>
					<dim>0</dim>
					<dim>128</dim>
				</port>
			</input>
			<output>
				<port id="1" precision="FP32" names="past_key_values.9.value">
					<dim>-1</dim>
					<dim>8</dim>
					<dim>-1</dim>
					<dim>128</dim>
				</port>
			</output>
		</layer>
		<layer id="15" name="Constant_113496" type="Const" version="opset1">
			<data element_type="i64" shape="" offset="4" size="8" />
			<output>
				<port id="0" precision="I64" />
			</output>
		</layer>
		<layer id="16" name="Gather_113497" type="Gather" version="opset8">
			<data batch_dims="0" />
			<input>
				<port id="0" precision="FP32">
					<dim>-1</dim>
					<dim>8</dim>
					<dim>-1</dim>
					<dim>128</dim>
				</port>
				<port id="1" precision="I32">
					<dim>-1</dim>
				</port>
				<port id="2" precision="I64" />
			</input>
			<output>
				<port id="3" precision="FP32">
					<dim>-1</dim>
					<dim>8</dim>
					<dim>-1</dim>
					<dim>128</dim>
				</port>
			</output>
		</layer>
		<layer id="17" name="Constant_99820" type="Const" version="opset1">
			<data element_type="f32" shape="1, 1, 2560" offset="28" size="10240" />
			<output>
				<port id="0" precision="FP32">
					<dim>1</dim>
					<dim>1</dim>
					<dim>2560</dim>
				</port>
			</output>
		</layer>
		<layer id="18" name="self.model.embed_tokens.weight" type="Const" version="opset1">
			<data element_type="u8" shape="146260, 2560" offset="10268" size="374425600" />
			<output>
				<port id="0" precision="U8">
					<dim>146260</dim>
					<dim>2560</dim>
				</port>
			</output>
		</layer>
		<layer id="19" name="Convert_140477" type="Convert" version="opset1">
			<data destination_type="f16" />
			<input>
				<port id="0" precision="U8">
					<dim>146260</dim>
					<dim>2560</dim>
				</port>
			</input>
			<output>
				<port id="1" precision="FP16">
					<dim>146260</dim>
					<dim>2560</dim>
				</port>
			</output>
		</layer>
		<layer id="20" name="self.model.embed_tokens.weight/zero_point" type="Const" version="opset1">
			<data element_type="u8" shape="146260, 1" offset="374435868" size="146260" />
			<output>
				<port id="0" precision="U8">
					<dim>146260</dim>
					<dim>1</dim>
				</port>
			</output>
		</layer>
		<layer id="21" name="Convert_140480" type="Convert" version="opset1">
			<data destination_type="f16" />
			<input>
				<port id="0" precision="U8">
					<dim>146260</dim>
					<dim>1</dim>
				</port>
			</input>
			<output>
				<port id="1" precision="FP16">
					<dim>146260</dim>
					<dim>1</dim>
				</port>
			</output>
		</layer>
		<layer id="22" name="self.model.embed_tokens.weight/zero_point/subtract" type="Subtract" version="opset1">
			<data auto_broadcast="numpy" />
			<input>
				<port id="0" precision="FP16">
					<dim>146260</dim>
					<dim>2560</dim>
				</port>
				<port id="1" precision="FP16">
					<dim>146260</dim>
					<dim>1</dim>
				</port>
			</input>
			<output>
				<port id="2" precision="FP16">
					<dim>146260</dim>
					<dim>2560</dim>
				</port>
			</output>
		</layer>
		<layer id="23" name="self.model.embed_tokens.weight/scale" type="Const" version="opset1">
			<data element_type="f16" shape="146260, 1" offset="374582128" size="292520" />
			<output>
				<port id="0" precision="FP16">
					<dim>146260</dim>
					<dim>1</dim>
				</port>
			</output>
		</layer>
		<layer id="24" name="self.model.embed_tokens.weight/fq_weights_0" type="Multiply" version="opset1">
			<data auto_broadcast="numpy" />
			<input>
				<port id="0" precision="FP16">
					<dim>146260</dim>
					<dim>2560</dim>
				</port>
				<port id="1" precision="FP16">
					<dim>146260</dim>
					<dim>1</dim>
				</port>
			</input>
			<output>
				<port id="2" precision="FP16">
					<dim>146260</dim>
					<dim>2560</dim>
				</port>
			</output>
		</layer>
		<layer id="25" name="__module.model.embed_tokens/ov_ext::embedding/Convert" type="Convert" version="opset1">
			<data destination_type="f32" />
			<rt_info>
				<attribute name="decompression" version="0" />
			</rt_info>
			<input>
				<port id="0" precision="FP16">
					<dim>146260</dim>
					<dim>2560</dim>
				</port>
			</input>
			<output>
				<port id="1" precision="FP32">
					<dim>146260</dim>
					<dim>2560</dim>
				</port>
			</output>
		</layer>
		<layer id="26" name="__module.model.embed_tokens/ov_ext::embedding/Convert_1" type="Convert" version="opset1">
			<data destination_type="i32" />
			<input>
				<port id="0" precision="I64">
					<dim>-1</dim>
					<dim>-1</dim>
				</port>
			</input>
			<output>
				<port id="1" precision="I32">
					<dim>-1</dim>
					<dim>-1</dim>
				</port>
			</output>
		</layer>
		<layer id="27" name="__module.model.embed_tokens/ov_ext::embedding/Constant" type="Const" version="opset1">
			<data element_type="i32" shape="" offset="0" size="4" />
			<output>
				<port id="0" precision="I32" />
			</output>
		</layer>
		<layer id="28" name="__module.model.embed_tokens/ov_ext::embedding/Gather" type="Gather" version="opset8">
			<data batch_dims="0" />
			<input>
				<port id="0" precision="FP32">
					<dim>146260</dim>
					<dim>2560</dim>
				</port>
				<port id="1" precision="I32">
					<dim>-1</dim>
					<dim>-1</dim>
				</port>
				<port id="2" precision="I32" />
			</input>
			<output>
				<port id="3" precision="FP32" names="346,428,hidden_states.1,inputs_embeds">
					<dim>-1</dim>
					<dim>-1</dim>
					<dim>2560</dim>
				</port>
			</output>
		</layer>
		<layer id="29" name="Constant_99680" type="Const" version="opset1">
			<data element_type="f32" shape="1, 1, 1, 128" offset="374874648" size="512" />
			<output>
				<port id="0" precision="FP32">
					<dim>1</dim>
					<dim>1</dim>
					<dim>1</dim>
					<dim>128</dim>
				</port>
			</output>
		</layer>
		<layer id="30" name="Constant_99676" type="Const" version="opset1">
			<data element_type="f32" shape="1, 1, 2560" offset="374875160" size="10240" />
			<output>
				<port id="0" precision="FP32">
					<dim>1</dim>
					<dim>1</dim>
					<dim>2560</dim>
				</port>
			</output>
		</layer>
		<layer id="31" name="Constant_99675" type="Const" version="opset1">
			<data element_type="f32" shape="1, 1, 1" offset="374885400" size="4" />
			<output>
				<port id="0" precision="FP32">
					<dim>1</dim>
					<dim>1</dim>
					<dim>1</dim>
				</port>
			</output>
		</layer>
		<layer id="32" name="Constant_99673" type="Const" version="opset1">
			<data element_type="f32" shape="1, 1, 1" offset="374885404" size="4" />
			<output>
				<port id="0" precision="FP32">
					<dim>1</dim>
					<dim>1</dim>
					<dim>1</dim>
				</port>
			</output>
		</layer>
		<layer id="33" name="__module.model.layers.0.input_layernorm/aten::pow/Power" type="Power" version="opset1">
			<data auto_broadcast="numpy" />
			<input>
				<port id="0" precision="FP32">
					<dim>-1</dim>
					<dim>-1</dim>
					<dim>2560</dim>
				</port>
				<port id="1" precision="FP32">
					<dim>1</dim>
					<dim>1</dim>
					<dim>1</dim>
				</port>
			</input>
			<output>
				<port id="2" precision="FP32" names="429">
					<dim>-1</dim>
					<dim>-1</dim>
					<dim>2560</dim>
				</port>
			</output>
		</layer>
		<layer id="34" name="Constant_428" type="Const" version="opset1">
			<data element_type="i64" shape="1" offset="374885408" size="8" />
			<output>
				<port id="0" precision="I64">
					<dim>1</dim>
				</port>
			</output>
		</layer>
		<layer id="35" name="__module.model.layers.0.input_layernorm/aten::mean/ReduceMean" type="ReduceMean" version="opset1">
			<data keep_dims="true" />
			<input>
				<port id="0" precision="FP32">
					<dim>-1</dim>
					<dim>-1</dim>
					<dim>2560</dim>
				</port>
				<port id="1" precision="I64">
					<dim>1</dim>
				</port>
			</input>
			<output>
				<port id="2" precision="FP32" names="431,variance.1">
					<dim>-1</dim>
					<dim>-1</dim>
					<dim>1</dim>
				</port>
			</output>
		</layer>
		<layer id="36" name="Constant_99674" type="Const" version="opset1">
			<data element_type="f32" shape="1, 1, 1" offset="374885416" size="4" />
			<output>
				<port id="0" precision="FP32">
					<dim>1</dim>
					<dim>1</dim>
					<dim>1</dim>
				</port>
			</output>
		</layer>
		<layer id="37" name="__module.model.layers.0.input_layernorm/aten::add/Add" type="Add" version="opset1">
			<data auto_broadcast="numpy" />
			<input>
				<port id="0" precision="FP32">
					<dim>-1</dim>
					<dim>-1</dim>
					<dim>1</dim>
				</port>
				<port id="1" precision="FP32">
					<dim>1</dim>
					<dim>1</dim>
					<dim>1</dim>
				</port>
			</input>
			<output>
				<port id="2" precision="FP32" names="432">
					<dim>-1</dim>
					<dim>-1</dim>
					<dim>1</dim>
				</port>
			</output>
		</layer>
		<layer id="38" name="__module.model.layers.0.input_layernorm/aten::rsqrt/Sqrt" type="Sqrt" version="opset1">
			<input>
				<port id="0" precision="FP32">
					<dim>-1</dim>
					<dim>-1</dim>
					<dim>1</dim>
				</port>
			</input>
			<output>
				<port id="1" precision="FP32">
					<dim>-1</dim>
					<dim>-1</dim>
					<dim>1</dim>
				</port>
			</output>
		</layer>
		<layer id="39" name="__module.model.layers.0.input_layernorm/aten::rsqrt/Divide" type="Divide" version="opset1">
			<data auto_broadcast="numpy" m_pythondiv="true" />
			<input>
				<port id="0" precision="FP32">
					<dim>1</dim>
					<dim>1</dim>
					<dim>1</dim>
				</port>
				<port id="1" precision="FP32">
					<dim>-1</dim>
					<dim>-1</dim>
					<dim>1</dim>
				</port>
			</input>
			<output>
				<port id="2" precision="FP32" names="433">
					<dim>-1</dim>
					<dim>-1</dim>
					<dim>1</dim>
				</port>
			</output>
		</layer>
		<layer id="40" name="__module.model.layers.0.input_layernorm/aten::mul/Multiply" type="Multiply" version="opset1">
			<data auto_broadcast="numpy" />
			<input>
				<port id="0" precision="FP32">
					<dim>-1</dim>
					<dim>-1</dim>
					<dim>2560</dim>
				</port>
				<port id="1" precision="FP32">
					<dim>-1</dim>
					<dim>-1</dim>
					<dim>1</dim>
				</port>
			</input>
			<output>
				<port id="2" precision="FP32" names="434,435,hidden_states.3,hidden_states.5">
					<dim>-1</dim>
					<dim>-1</dim>
					<dim>2560</dim>
				</port>
			</output>
		</layer>
		<layer id="41" name="__module.model.layers.0.input_layernorm/aten::mul/Multiply_1" type="Multiply" version="opset1">
			<data auto_broadcast="numpy" />
			<input>
				<port id="0" precision="FP32">
					<dim>1</dim>
					<dim>1</dim>
					<dim>2560</dim>
				</port>
				<port id="1" precision="FP32">
					<dim>-1</dim>
					<dim>-1</dim>
					<dim>2560</dim>
				</port>
			</input>
			<output>
				<port id="2" precision="FP32" names="436,hidden_states.7">
					<dim>-1</dim>
					<dim>-1</dim>
					<dim>2560</dim>
				</port>
			</output>
		</layer>
		<layer id="42" name="self.model.layers.0.self_attn.q_proj.weight" type="Const" version="opset1">
			<data element_type="u4" shape="4096, 20, 128" offset="374885420" size="5242880" />
			<output>
				<port id="0" precision="U4">
					<dim>4096</dim>
					<dim>20</dim>
					<dim>128</dim>
				</port>
			</output>
		</layer>
		<layer id="43" name="Convert_700735" type="Convert" version="opset1">
			<data destination_type="f16" />
			<input>
				<port id="0" precision="U4">
					<dim>4096</dim>
					<dim>20</dim>
					<dim>128</dim>
				</port>
			</input>
			<output>
				<port id="1" precision="FP16">
					<dim>4096</dim>
					<dim>20</dim>
					<dim>128</dim>
				</port>
			</output>
		</layer>
		<layer id="44" name="self.model.layers.0.self_attn.q_proj.weight/zero_point" type="Const" version="opset1">
			<data element_type="u4" shape="4096, 20, 1" offset="380128300" size="40960" />
			<output>
				<port id="0" precision="U4">
					<dim>4096</dim>
					<dim>20</dim>
					<dim>1</dim>
				</port>
			</output>
		</layer>
		<layer id="45" name="Convert_700738" type="Convert" version="opset1">
			<data destination_type="f16" />
			<input>
				<port id="0" precision="U4">
					<dim>4096</dim>
					<dim>20</dim>
					<dim>1</dim>
				</port>
			</input>
			<output>
				<port id="1" precision="FP16">
					<dim>4096</dim>
					<dim>20</dim>
					<dim>1</dim>
				</port>
			</output>
		</layer>
		<layer id="46" name="self.model.layers.0.self_attn.q_proj.weight/zero_point/subtract" type="Subtract" version="opset1">
			<data auto_broadcast="numpy" />
			<input>
				<port id="0" precision="FP16">
					<dim>4096</dim>
					<dim>20</dim>
					<dim>128</dim>
				</port>
				<port id="1" precision="FP16">
					<dim>4096</dim>
					<dim>20</dim>
					<dim>1</dim>
				</port>
			</input>
			<output>
				<port id="2" precision="FP16">
					<dim>4096</dim>
					<dim>20</dim>
					<dim>128</dim>
				</port>
			</output>
		</layer>
		<layer id="47" name="self.model.layers.0.self_attn.q_proj.weight/scale" type="Const" version="opset1">
			<data element_type="f16" shape="4096, 20, 1" offset="380169260" size="163840" />
			<output>
				<port id="0" precision="FP16">
					<dim>4096</dim>
					<dim>20</dim>
					<dim>1</dim>
				</port>
			</output>
		</layer>
		<layer id="48" name="self.model.layers.0.self_attn.q_proj.weight/fq_weights_1" type="Multiply" version="opset1">
			<data auto_broadcast="numpy" />
			<input>
				<port id="0" precision="FP16">
					<dim>4096</dim>
					<dim>20</dim>
					<dim>128</dim>
				</port>
				<port id="1" precision="FP16">
					<dim>4096</dim>
					<dim>20</dim>
					<dim>1</dim>
				</port>
			</input>
			<output>
				<port id="2" precision="FP16">
					<dim>4096</dim>
					<dim>20</dim>
					<dim>128</dim>
				</port>
			</output>
		</layer>
		<layer id="49" name="Constant_700743" type="Const" version="opset1">
			<data element_type="i64" shape="2" offset="380333100" size="16" />
			<output>
				<port id="0" precision="I64">
					<dim>2</dim>
				</port>
			</output>
		</layer>
		<layer id="50" name="Reshape_700744" type="Reshape" version="opset1">
			<data special_zero="false" />
			<input>
				<port id="0" precision="FP16">
					<dim>4096</dim>
					<dim>20</dim>
					<dim>128</dim>
				</port>
				<port id="1" precision="I64">
					<dim>2</dim>
				</port>
			</input>
			<output>
				<port id="2" precision="FP16">
					<dim>4096</dim>
					<dim>2560</dim>
				</port>
			</output>
		</layer>
		<layer id="51" name="__module.model.layers.0.self_attn.q_proj/ov_ext::linear/Convert" type="Convert" version="opset1">
			<data destination_type="f32" />
			<rt_info>
				<attribute name="decompression" version="0" />
			</rt_info>
			<input>
				<port id="0" precision="FP16">
					<dim>4096</dim>
					<dim>2560</dim>
				</port>
			</input>
			<output>
				<port id="1" precision="FP32">
					<dim>4096</dim>
					<dim>2560</dim>
				</port>
			</output>
		</layer>
		<layer id="52" name="__module.model.layers.0.self_attn.q_proj/ov_ext::linear/MatMul" type="MatMul" version="opset1">
			<data transpose_a="false" transpose_b="true" />
			<input>
				<port id="0" precision="FP32">
					<dim>-1</dim>
					<dim>-1</dim>
					<dim>2560</dim>
				</port>
				<port id="1" precision="FP32">
					<dim>4096</dim>
					<dim>2560</dim>
				</port>
			</input>
			<output>
				<port id="2" precision="FP32" names="449">
					<dim>-1</dim>
					<dim>-1</dim>
					<dim>4096</dim>
				</port>
			</output>
		</layer>
		<layer id="53" name="Constant_110816" type="Const" version="opset1">
			<data element_type="i64" shape="4" offset="380333116" size="32" />
			<output>
				<port id="0" precision="I64">
					<dim>4</dim>
				</port>
			</output>
		</layer>
		<layer id="54" name="__module.model.layers.0.self_attn/aten::view/Reshape" type="Reshape" version="opset1">
			<data special_zero="true" />
			<input>
				<port id="0" precision="FP32">
					<dim>-1</dim>
					<dim>-1</dim>
					<dim>4096</dim>
				</port>
				<port id="1" precision="I64">
					<dim>4</dim>
				</port>
			</input>
			<output>
				<port id="2" precision="FP32" names="451,453,hidden_states.11,hidden_states.9">
					<dim>-1</dim>
					<dim>-1</dim>
					<dim>32</dim>
					<dim>128</dim>
				</port>
			</output>
		</layer>
		<layer id="55" name="Constant_99679" type="Const" version="opset1">
			<data element_type="f32" shape="1, 1, 1, 1" offset="374885400" size="4" />
			<output>
				<port id="0" precision="FP32">
					<dim>1</dim>
					<dim>1</dim>
					<dim>1</dim>
					<dim>1</dim>
				</port>
			</output>
		</layer>
		<layer id="56" name="Constant_99677" type="Const" version="opset1">
			<data element_type="f32" shape="1, 1, 1, 1" offset="374885404" size="4" />
			<output>
				<port id="0" precision="FP32">
					<dim>1</dim>
					<dim>1</dim>
					<dim>1</dim>
					<dim>1</dim>
				</port>
			</output>
		</layer>
		<layer id="57" name="__module.model.layers.0.self_attn.q_norm/aten::pow/Power" type="Power" version="opset1">
			<data auto_broadcast="numpy" />
			<input>
				<port id="0" precision="FP32">
					<dim>-1</dim>
					<dim>-1</dim>
					<dim>32</dim>
					<dim>128</dim>
				</port>
				<port id="1" precision="FP32">
					<dim>1</dim>
					<dim>1</dim>
					<dim>1</dim>
					<dim>1</dim>
				</port>
			</input>
			<output>
				<port id="2" precision="FP32" names="454">
					<dim>-1</dim>
					<dim>-1</dim>
					<dim>32</dim>
					<dim>128</dim>
				</port>
			</output>
		</layer>
		<layer id="58" name="Constant_507" type="Const" version="opset1">
			<data element_type="i64" shape="1" offset="374885408" size="8" />
			<output>
				<port id="0" precision="I64">
					<dim>1</dim>
				</port>
			</output>
		</layer>
		<layer id="59" name="__module.model.layers.0.self_attn.q_norm/aten::mean/ReduceMean" type="ReduceMean" version="opset1">
			<data keep_dims="true" />
			<input>
				<port id="0" precision="FP32">
					<dim>-1</dim>
					<dim>-1</dim>
					<dim>32</dim>
					<dim>128</dim>
				</port>
				<port id="1" precision="I64">
					<dim>1</dim>
				</port>
			</input>
			<output>
				<port id="2" precision="FP32" names="456,variance.3">
					<dim>-1</dim>
					<dim>-1</dim>
					<dim>32</dim>
					<dim>1</dim>
				</port>
			</output>
		</layer>
		<layer id="60" name="Constant_99678" type="Const" version="opset1">
			<data element_type="f32" shape="1, 1, 1, 1" offset="374885416" size="4" />
			<output>
				<port id="0" precision="FP32">
					<dim>1</dim>
					<dim>1</dim>
					<dim>1</dim>
					<dim>1</dim>
				</port>
			</output>
		</layer>
		<layer id="61" name="__module.model.layers.0.self_attn.q_norm/aten::add/Add" type="Add" version="opset1">
			<data auto_broadcast="numpy" />
			<input>
				<port id="0" precision="FP32">
					<dim>-1</dim>
					<dim>-1</dim>
					<dim>32</dim>
					<dim>1</dim>
				</port>
				<port id="1" precision="FP32">
					<dim>1</dim>
					<dim>1</dim>
					<dim>1</dim>
					<dim>1</dim>
				</port>
			</input>
			<output>
				<port id="2" precision="FP32" names="457">
					<dim>-1</dim>
					<dim>-1</dim>
					<dim>32</dim>
					<dim>1</dim>
				</port>
			</output>
		</layer>
		<layer id="62" name="__module.model.layers.0.self_attn.q_norm/aten::rsqrt/Sqrt" type="Sqrt" version="opset1">
			<input>
				<port id="0" precision="FP32">
					<dim>-1</dim>
					<dim>-1</dim>
					<dim>32</dim>
					<dim>1</dim>
				</port>
			</input>
			<output>
				<port id="1" precision="FP32">
					<dim>-1</dim>
					<dim>-1</dim>
					<dim>32</dim>
					<dim>1</dim>
				</port>
			</output>
		</layer>
		<layer id="63" name="__module.model.layers.0.self_attn.q_norm/aten::rsqrt/Divide" type="Divide" version="opset1">
			<data auto_broadcast="numpy" m_pythondiv="true" />
			<input>
				<port id="0" precision="FP32">
					<dim>1</dim>
					<dim>1</dim>
					<dim>1</dim>
					<dim>1</dim>
				</port>
				<port id="1" precision="FP32">
					<dim>-1</dim>
					<dim>-1</dim>
					<dim>32</dim>
					<dim>1</dim>
				</port>
			</input>
			<output>
				<port id="2" precision="FP32" names="458">
					<dim>-1</dim>
					<dim>-1</dim>
					<dim>32</dim>
					<dim>1</dim>
				</port>
			</output>
		</layer>
		<layer id="64" name="__module.model.layers.0.self_attn.q_norm/aten::mul/Multiply" type="Multiply" version="opset1">
			<data auto_broadcast="numpy" />
			<input>
				<port id="0" precision="FP32">
					<dim>-1</dim>
					<dim>-1</dim>
					<dim>32</dim>
					<dim>128</dim>
				</port>
				<port id="1" precision="FP32">
					<dim>-1</dim>
					<dim>-1</dim>
					<dim>32</dim>
					<dim>1</dim>
				</port>
			</input>
			<output>
				<port id="2" precision="FP32" names="459,460,hidden_states.13,hidden_states.15">
					<dim>-1</dim>
					<dim>-1</dim>
					<dim>32</dim>
					<dim>128</dim>
				</port>
			</output>
		</layer>
		<layer id="65" name="__module.model.layers.0.self_attn.q_norm/aten::mul/Multiply_1" type="Multiply" version="opset1">
			<data auto_broadcast="numpy" />
			<input>
				<port id="0" precision="FP32">
					<dim>1</dim>
					<dim>1</dim>
					<dim>1</dim>
					<dim>128</dim>
				</port>
				<port id="1" precision="FP32">
					<dim>-1</dim>
					<dim>-1</dim>
					<dim>32</dim>
					<dim>128</dim>
				</port>
			</input>
			<output>
				<port id="2" precision="FP32" names="461">
					<dim>-1</dim>
					<dim>-1</dim>
					<dim>32</dim>
					<dim>128</dim>
				</port>
			</output>
		</layer>
		<layer id="66" name="__module.model.layers.0.self_attn/aten::transpose/Constant" type="Const" version="opset1">
			<data element_type="i32" shape="4" offset="380333148" size="16" />
			<output>
				<port id="0" precision="I32">
					<dim>4</dim>
				</port>
			</output>
		</layer>
		<layer id="67" name="__module.model.layers.0.self_attn/aten::transpose/Transpose" type="Transpose" version="opset1">
			<input>
				<port id="0" precision="FP32">
					<dim>-1</dim>
					<dim>-1</dim>
					<dim>32</dim>
					<dim>128</dim>
				</port>
				<port id="1" precision="I32">
					<dim>4</dim>
				</port>
			</input>
			<output>
				<port id="2" precision="FP32" names="462,q.1">
					<dim>-1</dim>
					<dim>32</dim>
					<dim>-1</dim>
					<dim>128</dim>
				</port>
			</output>
		</layer>
		<layer id="68" name="__module.model.rotary_emb/aten::to/Convert" type="Const" version="opset1">
			<data element_type="f32" shape="1, 64, 1" offset="380333164" size="256" />
			<output>
				<port id="0" precision="FP32" names="399">
					<dim>1</dim>
					<dim>64</dim>
					<dim>1</dim>
				</port>
			</output>
		</layer>
		<layer id="69" name="ShapeOf_102187" type="ShapeOf" version="opset3">
			<data output_type="i64" />
			<input>
				<port id="0" precision="FP32">
					<dim>-1</dim>
					<dim>-1</dim>
					<dim>2560</dim>
				</port>
			</input>
			<output>
				<port id="1" precision="I64">
					<dim>3</dim>
				</port>
			</output>
		</layer>
		<layer id="70" name="Constant_102188" type="Const" version="opset1">
			<data element_type="i64" shape="1" offset="4" size="8" />
			<output>
				<port id="0" precision="I64">
					<dim>1</dim>
				</port>
			</output>
		</layer>
		<layer id="71" name="Constant_102189" type="Const" version="opset1">
			<data element_type="i64" shape="" offset="4" size="8" />
			<output>
				<port id="0" precision="I64" />
			</output>
		</layer>
		<layer id="72" name="Gather_102190" type="Gather" version="opset8">
			<data batch_dims="0" />
			<input>
				<port id="0" precision="I64">
					<dim>3</dim>
				</port>
				<port id="1" precision="I64">
					<dim>1</dim>
				</port>
				<port id="2" precision="I64" />
			</input>
			<output>
				<port id="3" precision="I64" names="1052,1068,1229,1245,1406,1422,1583,1599,1760,1776,1937,1953,2114,2130,2291,2307,2468,2484,2645,2661,2822,2838,2999,3015,3176,3192,3353,3369,3530,3546,3707,3723,3884,3900,400,4061,4077,4238,4254,4415,4431,4592,4608,4769,4785,4946,4962,5123,5139,521,5300,5316,537,5477,5493,5654,5670,5831,5847,6008,6024,6185,6201,6362,6378,6539,6555,6716,6732,698,714,875,891">
					<dim>1</dim>
				</port>
			</output>
		</layer>
		<layer id="73" name="Constant_87419" type="Const" version="opset1">
			<data element_type="i64" shape="1" offset="380333420" size="8" />
			<output>
				<port id="0" precision="I64">
					<dim>1</dim>
				</port>
			</output>
		</layer>
		<layer id="74" name="Constant_87421" type="Const" version="opset1">
			<data element_type="i64" shape="1" offset="380333420" size="8" />
			<output>
				<port id="0" precision="I64">
					<dim>1</dim>
				</port>
			</output>
		</layer>
		<layer id="75" name="__module.model.rotary_emb/prim::ListConstruct/SequenceMark" type="Concat" version="opset1">
			<data axis="0" />
			<input>
				<port id="0" precision="I64">
					<dim>1</dim>
				</port>
				<port id="1" precision="I64">
					<dim>1</dim>
				</port>
				<port id="2" precision="I64">
					<dim>1</dim>
				</port>
			</input>
			<output>
				<port id="3" precision="I64">
					<dim>3</dim>
				</port>
			</output>
		</layer>
		<layer id="76" name="__module.model.rotary_emb/aten::expand/Broadcast" type="Broadcast" version="opset3">
			<data mode="bidirectional" />
			<input>
				<port id="0" precision="FP32">
					<dim>1</dim>
					<dim>64</dim>
					<dim>1</dim>
				</port>
				<port id="1" precision="I64">
					<dim>3</dim>
				</port>
			</input>
			<output>
				<port id="2" precision="FP32" names="402,403,408,inv_freq_expanded,inv_freq_expanded.1">
					<dim>-1</dim>
					<dim>64</dim>
					<dim>1</dim>
				</port>
			</output>
		</layer>
		<layer id="77" name="268" type="Const" version="opset1">
			<data element_type="i64" shape="" offset="380333420" size="8" />
			<output>
				<port id="0" precision="I64" names="268" />
			</output>
		</layer>
		<layer id="78" name="__module.model.rotary_emb/aten::unsqueeze/Unsqueeze_2" type="Unsqueeze" version="opset1">
			<input>
				<port id="0" precision="I64">
					<dim>-1</dim>
					<dim>-1</dim>
				</port>
				<port id="1" precision="I64" />
			</input>
			<output>
				<port id="2" precision="I64" names="405,406">
					<dim>-1</dim>
					<dim>1</dim>
					<dim>-1</dim>
				</port>
			</output>
		</layer>
		<layer id="79" name="__module.model.rotary_emb/aten::to/Convert_3" type="Convert" version="opset1">
			<data destination_type="f32" />
			<input>
				<port id="0" precision="I64">
					<dim>-1</dim>
					<dim>1</dim>
					<dim>-1</dim>
				</port>
			</input>
			<output>
				<port id="1" precision="FP32" names="407,409,position_ids_expanded,position_ids_expanded.1">
					<dim>-1</dim>
					<dim>1</dim>
					<dim>-1</dim>
				</port>
			</output>
		</layer>
		<layer id="80" name="__module.model.rotary_emb/aten::matmul/MatMul" type="MatMul" version="opset1">
			<data transpose_a="false" transpose_b="false" />
			<input>
				<port id="0" precision="FP32">
					<dim>-1</dim>
					<dim>64</dim>
					<dim>1</dim>
				</port>
				<port id="1" precision="FP32">
					<dim>-1</dim>
					<dim>1</dim>
					<dim>-1</dim>
				</port>
			</input>
			<output>
				<port id="2" precision="FP32" names="410">
					<dim>-1</dim>
					<dim>64</dim>
					<dim>-1</dim>
				</port>
			</output>
		</layer>
		<layer id="81" name="__module.model.rotary_emb/aten::transpose/Constant" type="Const" version="opset1">
			<data element_type="i32" shape="3" offset="380333428" size="12" />
			<output>
				<port id="0" precision="I32">
					<dim>3</dim>
				</port>
			</output>
		</layer>
		<layer id="82" name="__module.model.rotary_emb/aten::transpose/Transpose" type="Transpose" version="opset1">
			<input>
				<port id="0" precision="FP32">
					<dim>-1</dim>
					<dim>64</dim>
					<dim>-1</dim>
				</port>
				<port id="1" precision="I32">
					<dim>3</dim>
				</port>
			</input>
			<output>
				<port id="2" precision="FP32" names="411,freqs">
					<dim>-1</dim>
					<dim>-1</dim>
					<dim>64</dim>
				</port>
			</output>
		</layer>
		<layer id="83" name="__module.model.rotary_emb/aten::cat/Concat" type="Concat" version="opset1">
			<data axis="-1" />
			<input>
				<port id="0" precision="FP32">
					<dim>-1</dim>
					<dim>-1</dim>
					<dim>64</dim>
				</port>
				<port id="1" precision="FP32">
					<dim>-1</dim>
					<dim>-1</dim>
					<dim>64</dim>
				</port>
			</input>
			<output>
				<port id="2" precision="FP32" names="413,emb">
					<dim>-1</dim>
					<dim>-1</dim>
					<dim>128</dim>
				</port>
			</output>
		</layer>
		<layer id="84" name="__module.model.rotary_emb/aten::cos/Cos" type="Cos" version="opset1">
			<input>
				<port id="0" precision="FP32">
					<dim>-1</dim>
					<dim>-1</dim>
					<dim>128</dim>
				</port>
			</input>
			<output>
				<port id="1" precision="FP32" names="414,415,418,cos.1,cos.3">
					<dim>-1</dim>
					<dim>-1</dim>
					<dim>128</dim>
				</port>
			</output>
		</layer>
		<layer id="85" name="__module.model.layers.0.self_attn/aten::unsqueeze/Unsqueeze" type="Unsqueeze" version="opset1">
			<input>
				<port id="0" precision="FP32">
					<dim>-1</dim>
					<dim>-1</dim>
					<dim>128</dim>
				</port>
				<port id="1" precision="I64" />
			</input>
			<output>
				<port id="2" precision="FP32" names="1014,1191,1368,1545,1722,1899,2076,2253,2430,2607,2784,2961,3138,3315,3492,3669,3846,4023,4200,4377,4554,4731,483,4908,5085,5262,5439,5616,5793,5970,6147,6324,6501,660,6678,837,cos,cos.11,cos.13,cos.15,cos.17,cos.19,cos.21,cos.23,cos.25,cos.27,cos.29,cos.31,cos.33,cos.35,cos.37,cos.39,cos.41,cos.43,cos.45,cos.47,cos.49,cos.5,cos.51,cos.53,cos.55,cos.57,cos.59,cos.61,cos.63,cos.65,cos.67,cos.69,cos.7,cos.71,cos.73,cos.9">
					<dim>-1</dim>
					<dim>1</dim>
					<dim>-1</dim>
					<dim>128</dim>
				</port>
			</output>
		</layer>
		<layer id="86" name="__module.model.layers.0.self_attn/aten::mul/Multiply" type="Multiply" version="opset1">
			<data auto_broadcast="numpy" />
			<input>
				<port id="0" precision="FP32">
					<dim>-1</dim>
					<dim>32</dim>
					<dim>-1</dim>
					<dim>128</dim>
				</port>
				<port id="1" precision="FP32">
					<dim>-1</dim>
					<dim>1</dim>
					<dim>-1</dim>
					<dim>128</dim>
				</port>
			</input>
			<output>
				<port id="2" precision="FP32" names="485">
					<dim>-1</dim>
					<dim>32</dim>
					<dim>-1</dim>
					<dim>128</dim>
				</port>
			</output>
		</layer>
		<layer id="87" name="Constant_832" type="Const" version="opset1">
			<data element_type="i64" shape="1" offset="380333440" size="8" />
			<output>
				<port id="0" precision="I64">
					<dim>1</dim>
				</port>
			</output>
		</layer>
		<layer id="88" name="Constant_834" type="Const" version="opset1">
			<data element_type="i64" shape="1" offset="380333448" size="8" />
			<output>
				<port id="0" precision="I64">
					<dim>1</dim>
				</port>
			</output>
		</layer>
		<layer id="89" name="Constant_836" type="Const" version="opset1">
			<data element_type="i64" shape="1" offset="380333420" size="8" />
			<output>
				<port id="0" precision="I64">
					<dim>1</dim>
				</port>
			</output>
		</layer>
		<layer id="90" name="Constant_788" type="Const" version="opset1">
			<data element_type="i64" shape="1" offset="380333456" size="8" />
			<output>
				<port id="0" precision="I64">
					<dim>1</dim>
				</port>
			</output>
		</layer>
		<layer id="91" name="__module.model.layers.0.self_attn/aten::slice/Slice" type="Slice" version="opset8">
			<input>
				<port id="0" precision="FP32">
					<dim>-1</dim>
					<dim>32</dim>
					<dim>-1</dim>
					<dim>128</dim>
				</port>
				<port id="1" precision="I64">
					<dim>1</dim>
				</port>
				<port id="2" precision="I64">
					<dim>1</dim>
				</port>
				<port id="3" precision="I64">
					<dim>1</dim>
				</port>
				<port id="4" precision="I64">
					<dim>1</dim>
				</port>
			</input>
			<output>
				<port id="5" precision="FP32" names="495,x2.1">
					<dim>-1</dim>
					<dim>32</dim>
					<dim>-1</dim>
					<dim>64</dim>
				</port>
			</output>
		</layer>
		<layer id="92" name="__module.model.layers.0.self_attn/aten::neg/Constant" type="Const" version="opset1">
			<data element_type="i32" shape="" offset="380333464" size="4" />
			<output>
				<port id="0" precision="I32" />
			</output>
		</layer>
		<layer id="93" name="__module.model.layers.0.self_attn/aten::neg/ConvertLike" type="Convert" version="opset1">
			<data destination_type="f32" />
			<input>
				<port id="0" precision="I32" />
			</input>
			<output>
				<port id="1" precision="FP32" />
			</output>
		</layer>
		<layer id="94" name="__module.model.layers.0.self_attn/aten::neg/Multiply" type="Multiply" version="opset1">
			<data auto_broadcast="numpy" />
			<input>
				<port id="0" precision="FP32">
					<dim>-1</dim>
					<dim>32</dim>
					<dim>-1</dim>
					<dim>64</dim>
				</port>
				<port id="1" precision="FP32" />
			</input>
			<output>
				<port id="2" precision="FP32" names="496">
					<dim>-1</dim>
					<dim>32</dim>
					<dim>-1</dim>
					<dim>64</dim>
				</port>
			</output>
		</layer>
		<layer id="95" name="Constant_729" type="Const" version="opset1">
			<data element_type="i64" shape="1" offset="4" size="8" />
			<output>
				<port id="0" precision="I64">
					<dim>1</dim>
				</port>
			</output>
		</layer>
		<layer id="96" name="Constant_773" type="Const" version="opset1">
			<data element_type="i64" shape="1" offset="380333440" size="8" />
			<output>
				<port id="0" precision="I64">
					<dim>1</dim>
				</port>
			</output>
		</layer>
		<layer id="97" name="Constant_775" type="Const" version="opset1">
			<data element_type="i64" shape="1" offset="380333420" size="8" />
			<output>
				<port id="0" precision="I64">
					<dim>1</dim>
				</port>
			</output>
		</layer>
		<layer id="98" name="Constant_727" type="Const" version="opset1">
			<data element_type="i64" shape="1" offset="380333456" size="8" />
			<output>
				<port id="0" precision="I64">
					<dim>1</dim>
				</port>
			</output>
		</layer>
		<layer id="99" name="__module.model.layers.0.self_attn/aten::slice/Slice_1" type="Slice" version="opset8">
			<input>
				<port id="0" precision="FP32">
					<dim>-1</dim>
					<dim>32</dim>
					<dim>-1</dim>
					<dim>128</dim>
				</port>
				<port id="1" precision="I64">
					<dim>1</dim>
				</port>
				<port id="2" precision="I64">
					<dim>1</dim>
				</port>
				<port id="3" precision="I64">
					<dim>1</dim>
				</port>
				<port id="4" precision="I64">
					<dim>1</dim>
				</port>
			</input>
			<output>
				<port id="5" precision="FP32" names="490,x1.1">
					<dim>-1</dim>
					<dim>32</dim>
					<dim>-1</dim>
					<dim>64</dim>
				</port>
			</output>
		</layer>
		<layer id="100" name="__module.model.layers.0.self_attn/aten::cat/Concat" type="Concat" version="opset1">
			<data axis="-1" />
			<input>
				<port id="0" precision="FP32">
					<dim>-1</dim>
					<dim>32</dim>
					<dim>-1</dim>
					<dim>64</dim>
				</port>
				<port id="1" precision="FP32">
					<dim>-1</dim>
					<dim>32</dim>
					<dim>-1</dim>
					<dim>64</dim>
				</port>
			</input>
			<output>
				<port id="2" precision="FP32" names="498">
					<dim>-1</dim>
					<dim>32</dim>
					<dim>-1</dim>
					<dim>128</dim>
				</port>
			</output>
		</layer>
		<layer id="101" name="__module.model.rotary_emb/aten::sin/Sin" type="Sin" version="opset1">
			<input>
				<port id="0" precision="FP32">
					<dim>-1</dim>
					<dim>-1</dim>
					<dim>128</dim>
				</port>
			</input>
			<output>
				<port id="1" precision="FP32" names="416,417,419,sin.1,sin.3">
					<dim>-1</dim>
					<dim>-1</dim>
					<dim>128</dim>
				</port>
			</output>
		</layer>
		<layer id="102" name="__module.model.layers.0.self_attn/aten::unsqueeze/Unsqueeze_1" type="Unsqueeze" version="opset1">
			<input>
				<port id="0" precision="FP32">
					<dim>-1</dim>
					<dim>-1</dim>
					<dim>128</dim>
				</port>
				<port id="1" precision="I64" />
			</input>
			<output>
				<port id="2" precision="FP32" names="1015,1192,1369,1546,1723,1900,2077,2254,2431,2608,2785,2962,3139,3316,3493,3670,3847,4024,4201,4378,4555,4732,484,4909,5086,5263,5440,5617,5794,5971,6148,6325,6502,661,6679,838,sin,sin.11,sin.13,sin.15,sin.17,sin.19,sin.21,sin.23,sin.25,sin.27,sin.29,sin.31,sin.33,sin.35,sin.37,sin.39,sin.41,sin.43,sin.45,sin.47,sin.49,sin.5,sin.51,sin.53,sin.55,sin.57,sin.59,sin.61,sin.63,sin.65,sin.67,sin.69,sin.7,sin.71,sin.73,sin.9">
					<dim>-1</dim>
					<dim>1</dim>
					<dim>-1</dim>
					<dim>128</dim>
				</port>
			</output>
		</layer>
		<layer id="103" name="__module.model.layers.0.self_attn/aten::mul/Multiply_1" type="Multiply" version="opset1">
			<data auto_broadcast="numpy" />
			<input>
				<port id="0" precision="FP32">
					<dim>-1</dim>
					<dim>32</dim>
					<dim>-1</dim>
					<dim>128</dim>
				</port>
				<port id="1" precision="FP32">
					<dim>-1</dim>
					<dim>1</dim>
					<dim>-1</dim>
					<dim>128</dim>
				</port>
			</input>
			<output>
				<port id="2" precision="FP32" names="499">
					<dim>-1</dim>
					<dim>32</dim>
					<dim>-1</dim>
					<dim>128</dim>
				</port>
			</output>
		</layer>
		<layer id="104" name="__module.model.layers.0.self_attn/aten::add/Add" type="Add" version="opset1">
			<data auto_broadcast="numpy" />
			<input>
				<port id="0" precision="FP32">
					<dim>-1</dim>
					<dim>32</dim>
					<dim>-1</dim>
					<dim>128</dim>
				</port>
				<port id="1" precision="FP32">
					<dim>-1</dim>
					<dim>32</dim>
					<dim>-1</dim>
					<dim>128</dim>
				</port>
			</input>
			<output>
				<port id="2" precision="FP32" names="500,query.1">
					<dim>-1</dim>
					<dim>32</dim>
					<dim>-1</dim>
					<dim>128</dim>
				</port>
			</output>
		</layer>
		<layer id="105" name="Constant_114708" type="Const" version="opset1">
			<data element_type="f32" shape="" offset="0" size="4" />
			<output>
				<port id="0" precision="FP32" />
			</output>
		</layer>
		<layer id="106" name="Constant_114701" type="Const" version="opset1">
			<data element_type="i64" shape="1" offset="12" size="8" />
			<output>
				<port id="0" precision="I64">
					<dim>1</dim>
				</port>
			</output>
		</layer>
		<layer id="107" name="Constant_114703" type="Const" version="opset1">
			<data element_type="i64" shape="1" offset="4" size="8" />
			<output>
				<port id="0" precision="I64">
					<dim>1</dim>
				</port>
			</output>
		</layer>
		<layer id="108" name="Constant_114705" type="Const" version="opset1">
			<data element_type="i64" shape="1" offset="20" size="8" />
			<output>
				<port id="0" precision="I64">
					<dim>1</dim>
				</port>
			</output>
		</layer>
		<layer id="109" name="Concat_114706" type="Concat" version="opset1">
			<data axis="0" />
			<input>
				<port id="0" precision="I64">
					<dim>1</dim>
				</port>
				<port id="1" precision="I64">
					<dim>1</dim>
				</port>
				<port id="2" precision="I64">
					<dim>1</dim>
				</port>
				<port id="3" precision="I64">
					<dim>1</dim>
				</port>
			</input>
			<output>
				<port id="4" precision="I64">
					<dim>4</dim>
				</port>
			</output>
		</layer>
		<layer id="110" name="Broadcast_114709" type="Broadcast" version="opset3">
			<data mode="numpy" />
			<input>
				<port id="0" precision="FP32" />
				<port id="1" precision="I64">
					<dim>4</dim>
				</port>
			</input>
			<output>
				<port id="2" precision="FP32">
					<dim>-1</dim>
					<dim>8</dim>
					<dim>0</dim>
					<dim>128</dim>
				</port>
			</output>
		</layer>
		<layer id="111" name="ReadValue_114096" type="ReadValue" version="opset6">
			<data variable_id="past_key_values.0.keypresent.0.key" variable_type="f32" variable_shape="?,8,?,128" />
			<input>
				<port id="0" precision="FP32">
					<dim>-1</dim>
					<dim>8</dim>
					<dim>0</dim>
					<dim>128</dim>
				</port>
			</input>
			<output>
				<port id="1" precision="FP32" names="past_key_values.0.key">
					<dim>-1</dim>
					<dim>8</dim>
					<dim>-1</dim>
					<dim>128</dim>
				</port>
			</output>
		</layer>
		<layer id="112" name="Constant_113439" type="Const" version="opset1">
			<data element_type="i64" shape="" offset="4" size="8" />
			<output>
				<port id="0" precision="I64" />
			</output>
		</layer>
		<layer id="113" name="Gather_113440" type="Gather" version="opset8">
			<data batch_dims="0" />
			<input>
				<port id="0" precision="FP32">
					<dim>-1</dim>
					<dim>8</dim>
					<dim>-1</dim>
					<dim>128</dim>
				</port>
				<port id="1" precision="I32">
					<dim>-1</dim>
				</port>
				<port id="2" precision="I64" />
			</input>
			<output>
				<port id="3" precision="FP32">
					<dim>-1</dim>
					<dim>8</dim>
					<dim>-1</dim>
					<dim>128</dim>
				</port>
			</output>
		</layer>
		<layer id="114" name="Constant_99684" type="Const" version="opset1">
			<data element_type="f32" shape="1, 1, 1, 128" offset="380333468" size="512" />
			<output>
				<port id="0" precision="FP32">
					<dim>1</dim>
					<dim>1</dim>
					<dim>1</dim>
					<dim>128</dim>
				</port>
			</output>
		</layer>
		<layer id="115" name="self.model.layers.0.self_attn.k_proj.weight" type="Const" version="opset1">
			<data element_type="u4" shape="1024, 20, 128" offset="380333980" size="1310720" />
			<output>
				<port id="0" precision="U4">
					<dim>1024</dim>
					<dim>20</dim>
					<dim>128</dim>
				</port>
			</output>
		</layer>
		<layer id="116" name="Convert_1070815" type="Convert" version="opset1">
			<data destination_type="f16" />
			<input>
				<port id="0" precision="U4">
					<dim>1024</dim>
					<dim>20</dim>
					<dim>128</dim>
				</port>
			</input>
			<output>
				<port id="1" precision="FP16">
					<dim>1024</dim>
					<dim>20</dim>
					<dim>128</dim>
				</port>
			</output>
		</layer>
		<layer id="117" name="self.model.layers.0.self_attn.k_proj.weight/zero_point" type="Const" version="opset1">
			<data element_type="u4" shape="1024, 20, 1" offset="381644700" size="10240" />
			<output>
				<port id="0" precision="U4">
					<dim>1024</dim>
					<dim>20</dim>
					<dim>1</dim>
				</port>
			</output>
		</layer>
		<layer id="118" name="Convert_1070818" type="Convert" version="opset1">
			<data destination_type="f16" />
			<input>
				<port id="0" precision="U4">
					<dim>1024</dim>
					<dim>20</dim>
					<dim>1</dim>
				</port>
			</input>
			<output>
				<port id="1" precision="FP16">
					<dim>1024</dim>
					<dim>20</dim>
					<dim>1</dim>
				</port>
			</output>
		</layer>
		<layer id="119" name="self.model.layers.0.self_attn.k_proj.weight/zero_point/subtract" type="Subtract" version="opset1">
			<data auto_broadcast="numpy" />
			<input>
				<port id="0" precision="FP16">
					<dim>1024</dim>
					<dim>20</dim>
					<dim>128</dim>
				</port>
				<port id="1" precision="FP16">
					<dim>1024</dim>
					<dim>20</dim>
					<dim>1</dim>
				</port>
			</input>
			<output>
				<port id="2" precision="FP16">
					<dim>1024</dim>
					<dim>20</dim>
					<dim>128</dim>
				</port>
			</output>
		</layer>
		<layer id="120" name="self.model.layers.0.self_attn.k_proj.weight/scale" type="Const" version="opset1">
			<data element_type="f16" shape="1024, 20, 1" offset="381654940" size="40960" />
			<output>
				<port id="0" precision="FP16">
					<dim>1024</dim>
					<dim>20</dim>
					<dim>1</dim>
				</port>
			</output>
		</layer>
		<layer id="121" name="self.model.layers.0.self_attn.k_proj.weight/fq_weights_1" type="Multiply" version="opset1">
			<data auto_broadcast="numpy" />
			<input>
				<port id="0" precision="FP16">
					<dim>1024</dim>
					<dim>20</dim>
					<dim>128</dim>
				</port>
				<port id="1" precision="FP16">
					<dim>1024</dim>
					<dim>20</dim>
					<dim>1</dim>
				</port>
			</input>
			<output>
				<port id="2" precision="FP16">
					<dim>1024</dim>
					<dim>20</dim>
					<dim>128</dim>
				</port>
			</output>
		</layer>
		<layer id="122" name="Constant_1070823" type="Const" version="opset1">
			<data element_type="i64" shape="2" offset="381695900" size="16" />
			<output>
				<port id="0" precision="I64">
					<dim>2</dim>
				</port>
			</output>
		</layer>
		<layer id="123" name="Reshape_1070824" type="Reshape" version="opset1">
			<data special_zero="false" />
			<input>
				<port id="0" precision="FP16">
					<dim>1024</dim>
					<dim>20</dim>
					<dim>128</dim>
				</port>
				<port id="1" precision="I64">
					<dim>2</dim>
				</port>
			</input>
			<output>
				<port id="2" precision="FP16">
					<dim>1024</dim>
					<dim>2560</dim>
				</port>
			</output>
		</layer>
		<layer id="124" name="__module.model.layers.0.self_attn.k_proj/ov_ext::linear/Convert" type="Convert" version="opset1">
			<data destination_type="f32" />
			<rt_info>
				<attribute name="decompression" version="0" />
			</rt_info>
			<input>
				<port id="0" precision="FP16">
					<dim>1024</dim>
					<dim>2560</dim>
				</port>
			</input>
			<output>
				<port id="1" precision="FP32">
					<dim>1024</dim>
					<dim>2560</dim>
				</port>
			</output>
		</layer>
		<layer id="125" name="__module.model.layers.0.self_attn.k_proj/ov_ext::linear/MatMul" type="MatMul" version="opset1">
			<data transpose_a="false" transpose_b="true" />
			<input>
				<port id="0" precision="FP32">
					<dim>-1</dim>
					<dim>-1</dim>
					<dim>2560</dim>
				</port>
				<port id="1" precision="FP32">
					<dim>1024</dim>
					<dim>2560</dim>
				</port>
			</input>
			<output>
				<port id="2" precision="FP32" names="464">
					<dim>-1</dim>
					<dim>-1</dim>
					<dim>1024</dim>
				</port>
			</output>
		</layer>
		<layer id="126" name="Constant_110817" type="Const" version="opset1">
			<data element_type="i64" shape="4" offset="381695916" size="32" />
			<output>
				<port id="0" precision="I64">
					<dim>4</dim>
				</port>
			</output>
		</layer>
		<layer id="127" name="__module.model.layers.0.self_attn/aten::view/Reshape_1" type="Reshape" version="opset1">
			<data special_zero="true" />
			<input>
				<port id="0" precision="FP32">
					<dim>-1</dim>
					<dim>-1</dim>
					<dim>1024</dim>
				</port>
				<port id="1" precision="I64">
					<dim>4</dim>
				</port>
			</input>
			<output>
				<port id="2" precision="FP32" names="466,468,hidden_states.17,hidden_states.19">
					<dim>-1</dim>
					<dim>-1</dim>
					<dim>8</dim>
					<dim>128</dim>
				</port>
			</output>
		</layer>
		<layer id="128" name="Constant_99683" type="Const" version="opset1">
			<data element_type="f32" shape="1, 1, 1, 1" offset="374885400" size="4" />
			<output>
				<port id="0" precision="FP32">
					<dim>1</dim>
					<dim>1</dim>
					<dim>1</dim>
					<dim>1</dim>
				</port>
			</output>
		</layer>
		<layer id="129" name="Constant_99681" type="Const" version="opset1">
			<data element_type="f32" shape="1, 1, 1, 1" offset="374885404" size="4" />
			<output>
				<port id="0" precision="FP32">
					<dim>1</dim>
					<dim>1</dim>
					<dim>1</dim>
					<dim>1</dim>
				</port>
			</output>
		</layer>
		<layer id="130" name="__module.model.layers.0.self_attn.k_norm/aten::pow/Power" type="Power" version="opset1">
			<data auto_broadcast="numpy" />
			<input>
				<port id="0" precision="FP32">
					<dim>-1</dim>
					<dim>-1</dim>
					<dim>8</dim>
					<dim>128</dim>
				</port>
				<port id="1" precision="FP32">
					<dim>1</dim>
					<dim>1</dim>
					<dim>1</dim>
					<dim>1</dim>
				</port>
			</input>
			<output>
				<port id="2" precision="FP32" names="469">
					<dim>-1</dim>
					<dim>-1</dim>
					<dim>8</dim>
					<dim>128</dim>
				</port>
			</output>
		</layer>
		<layer id="131" name="Constant_605" type="Const" version="opset1">
			<data element_type="i64" shape="1" offset="374885408" size="8" />
			<output>
				<port id="0" precision="I64">
					<dim>1</dim>
				</port>
			</output>
		</layer>
		<layer id="132" name="__module.model.layers.0.self_attn.k_norm/aten::mean/ReduceMean" type="ReduceMean" version="opset1">
			<data keep_dims="true" />
			<input>
				<port id="0" precision="FP32">
					<dim>-1</dim>
					<dim>-1</dim>
					<dim>8</dim>
					<dim>128</dim>
				</port>
				<port id="1" precision="I64">
					<dim>1</dim>
				</port>
			</input>
			<output>
				<port id="2" precision="FP32" names="471,variance.5">
					<dim>-1</dim>
					<dim>-1</dim>
					<dim>8</dim>
					<dim>1</dim>
				</port>
			</output>
		</layer>
		<layer id="133" name="Constant_99682" type="Const" version="opset1">
			<data element_type="f32" shape="1, 1, 1, 1" offset="374885416" size="4" />
			<output>
				<port id="0" precision="FP32">
					<dim>1</dim>
					<dim>1</dim>
					<dim>1</dim>
					<dim>1</dim>
				</port>
			</output>
		</layer>
		<layer id="134" name="__module.model.layers.0.self_attn.k_norm/aten::add/Add" type="Add" version="opset1">
			<data auto_broadcast="numpy" />
			<input>
				<port id="0" precision="FP32">
					<dim>-1</dim>
					<dim>-1</dim>
					<dim>8</dim>
					<dim>1</dim>
				</port>
				<port id="1" precision="FP32">
					<dim>1</dim>
					<dim>1</dim>
					<dim>1</dim>
					<dim>1</dim>
				</port>
			</input>
			<output>
				<port id="2" precision="FP32" names="472">
					<dim>-1</dim>
					<dim>-1</dim>
					<dim>8</dim>
					<dim>1</dim>
				</port>
			</output>
		</layer>
		<layer id="135" name="__module.model.layers.0.self_attn.k_norm/aten::rsqrt/Sqrt" type="Sqrt" version="opset1">
			<input>
				<port id="0" precision="FP32">
					<dim>-1</dim>
					<dim>-1</dim>
					<dim>8</dim>
					<dim>1</dim>
				</port>
			</input>
			<output>
				<port id="1" precision="FP32">
					<dim>-1</dim>
					<dim>-1</dim>
					<dim>8</dim>
					<dim>1</dim>
				</port>
			</output>
		</layer>
		<layer id="136" name="__module.model.layers.0.self_attn.k_norm/aten::rsqrt/Divide" type="Divide" version="opset1">
			<data auto_broadcast="numpy" m_pythondiv="true" />
			<input>
				<port id="0" precision="FP32">
					<dim>1</dim>
					<dim>1</dim>
					<dim>1</dim>
					<dim>1</dim>
				</port>
				<port id="1" precision="FP32">
					<dim>-1</dim>
					<dim>-1</dim>
					<dim>8</dim>
					<dim>1</dim>
				</port>
			</input>
			<output>
				<port id="2" precision="FP32" names="473">
					<dim>-1</dim>
					<dim>-1</dim>
					<dim>8</dim>
					<dim>1</dim>
				</port>
			</output>
		</layer>
		<layer id="137" name="__module.model.layers.0.self_attn.k_norm/aten::mul/Multiply" type="Multiply" version="opset1">
			<data auto_broadcast="numpy" />
			<input>
				<port id="0" precision="FP32">
					<dim>-1</dim>
					<dim>-1</dim>
					<dim>8</dim>
					<dim>128</dim>
				</port>
				<port id="1" precision="FP32">
					<dim>-1</dim>
					<dim>-1</dim>
					<dim>8</dim>
					<dim>1</dim>
				</port>
			</input>
			<output>
				<port id="2" precision="FP32" names="474,475,hidden_states.21,hidden_states.23">
					<dim>-1</dim>
					<dim>-1</dim>
					<dim>8</dim>
					<dim>128</dim>
				</port>
			</output>
		</layer>
		<layer id="138" name="__module.model.layers.0.self_attn.k_norm/aten::mul/Multiply_1" type="Multiply" version="opset1">
			<data auto_broadcast="numpy" />
			<input>
				<port id="0" precision="FP32">
					<dim>1</dim>
					<dim>1</dim>
					<dim>1</dim>
					<dim>128</dim>
				</port>
				<port id="1" precision="FP32">
					<dim>-1</dim>
					<dim>-1</dim>
					<dim>8</dim>
					<dim>128</dim>
				</port>
			</input>
			<output>
				<port id="2" precision="FP32" names="476">
					<dim>-1</dim>
					<dim>-1</dim>
					<dim>8</dim>
					<dim>128</dim>
				</port>
			</output>
		</layer>
		<layer id="139" name="__module.model.layers.0.self_attn/aten::transpose/Constant_1" type="Const" version="opset1">
			<data element_type="i32" shape="4" offset="380333148" size="16" />
			<output>
				<port id="0" precision="I32">
					<dim>4</dim>
				</port>
			</output>
		</layer>
		<layer id="140" name="__module.model.layers.0.self_attn/aten::transpose/Transpose_1" type="Transpose" version="opset1">
			<input>
				<port id="0" precision="FP32">
					<dim>-1</dim>
					<dim>-1</dim>
					<dim>8</dim>
					<dim>128</dim>
				</port>
				<port id="1" precision="I32">
					<dim>4</dim>
				</port>
			</input>
			<output>
				<port id="2" precision="FP32" names="477,k.1">
					<dim>-1</dim>
					<dim>8</dim>
					<dim>-1</dim>
					<dim>128</dim>
				</port>
			</output>
		</layer>
		<layer id="141" name="__module.model.layers.0.self_attn/aten::mul/Multiply_2" type="Multiply" version="opset1">
			<data auto_broadcast="numpy" />
			<input>
				<port id="0" precision="FP32">
					<dim>-1</dim>
					<dim>8</dim>
					<dim>-1</dim>
					<dim>128</dim>
				</port>
				<port id="1" precision="FP32">
					<dim>-1</dim>
					<dim>1</dim>
					<dim>-1</dim>
					<dim>128</dim>
				</port>
			</input>
			<output>
				<port id="2" precision="FP32" names="501">
					<dim>-1</dim>
					<dim>8</dim>
					<dim>-1</dim>
					<dim>128</dim>
				</port>
			</output>
		</layer>
		<layer id="142" name="Constant_974" type="Const" version="opset1">
			<data element_type="i64" shape="1" offset="380333440" size="8" />
			<output>
				<port id="0" precision="I64">
					<dim>1</dim>
				</port>
			</output>
		</layer>
		<layer id="143" name="Constant_976" type="Const" version="opset1">
			<data element_type="i64" shape="1" offset="380333448" size="8" />
			<output>
				<port id="0" precision="I64">
					<dim>1</dim>
				</port>
			</output>
		</layer>
		<layer id="144" name="Constant_978" type="Const" version="opset1">
			<data element_type="i64" shape="1" offset="380333420" size="8" />
			<output>
				<port id="0" precision="I64">
					<dim>1</dim>
				</port>
			</output>
		</layer>
		<layer id="145" name="Constant_930" type="Const" version="opset1">
			<data element_type="i64" shape="1" offset="380333456" size="8" />
			<output>
				<port id="0" precision="I64">
					<dim>1</dim>
				</port>
			</output>
		</layer>
		<layer id="146" name="__module.model.layers.0.self_attn/aten::slice/Slice_2" type="Slice" version="opset8">
			<input>
				<port id="0" precision="FP32">
					<dim>-1</dim>
					<dim>8</dim>
					<dim>-1</dim>
					<dim>128</dim>
				</port>
				<port id="1" precision="I64">
					<dim>1</dim>
				</port>
				<port id="2" precision="I64">
					<dim>1</dim>
				</port>
				<port id="3" precision="I64">
					<dim>1</dim>
				</port>
				<port id="4" precision="I64">
					<dim>1</dim>
				</port>
			</input>
			<output>
				<port id="5" precision="FP32" names="511,x2.3">
					<dim>-1</dim>
					<dim>8</dim>
					<dim>-1</dim>
					<dim>64</dim>
				</port>
			</output>
		</layer>
		<layer id="147" name="__module.model.layers.0.self_attn/aten::neg/Constant_1" type="Const" version="opset1">
			<data element_type="i32" shape="" offset="380333464" size="4" />
			<output>
				<port id="0" precision="I32" />
			</output>
		</layer>
		<layer id="148" name="__module.model.layers.0.self_attn/aten::neg/ConvertLike_1" type="Convert" version="opset1">
			<data destination_type="f32" />
			<input>
				<port id="0" precision="I32" />
			</input>
			<output>
				<port id="1" precision="FP32" />
			</output>
		</layer>
		<layer id="149" name="__module.model.layers.0.self_attn/aten::neg/Multiply_1" type="Multiply" version="opset1">
			<data auto_broadcast="numpy" />
			<input>
				<port id="0" precision="FP32">
					<dim>-1</dim>
					<dim>8</dim>
					<dim>-1</dim>
					<dim>64</dim>
				</port>
				<port id="1" precision="FP32" />
			</input>
			<output>
				<port id="2" precision="FP32" names="512">
					<dim>-1</dim>
					<dim>8</dim>
					<dim>-1</dim>
					<dim>64</dim>
				</port>
			</output>
		</layer>
		<layer id="150" name="Constant_871" type="Const" version="opset1">
			<data element_type="i64" shape="1" offset="4" size="8" />
			<output>
				<port id="0" precision="I64">
					<dim>1</dim>
				</port>
			</output>
		</layer>
		<layer id="151" name="Constant_915" type="Const" version="opset1">
			<data element_type="i64" shape="1" offset="380333440" size="8" />
			<output>
				<port id="0" precision="I64">
					<dim>1</dim>
				</port>
			</output>
		</layer>
		<layer id="152" name="Constant_917" type="Const" version="opset1">
			<data element_type="i64" shape="1" offset="380333420" size="8" />
			<output>
				<port id="0" precision="I64">
					<dim>1</dim>
				</port>
			</output>
		</layer>
		<layer id="153" name="Constant_869" type="Const" version="opset1">
			<data element_type="i64" shape="1" offset="380333456" size="8" />
			<output>
				<port id="0" precision="I64">
					<dim>1</dim>
				</port>
			</output>
		</layer>
		<layer id="154" name="__module.model.layers.0.self_attn/aten::slice/Slice_3" type="Slice" version="opset8">
			<input>
				<port id="0" precision="FP32">
					<dim>-1</dim>
					<dim>8</dim>
					<dim>-1</dim>
					<dim>128</dim>
				</port>
				<port id="1" precision="I64">
					<dim>1</dim>
				</port>
				<port id="2" precision="I64">
					<dim>1</dim>
				</port>
				<port id="3" precision="I64">
					<dim>1</dim>
				</port>
				<port id="4" precision="I64">
					<dim>1</dim>
				</port>
			</input>
			<output>
				<port id="5" precision="FP32" names="506,x1.3">
					<dim>-1</dim>
					<dim>8</dim>
					<dim>-1</dim>
					<dim>64</dim>
				</port>
			</output>
		</layer>
		<layer id="155" name="__module.model.layers.0.self_attn/aten::cat/Concat_1" type="Concat" version="opset1">
			<data axis="-1" />
			<input>
				<port id="0" precision="FP32">
					<dim>-1</dim>
					<dim>8</dim>
					<dim>-1</dim>
					<dim>64</dim>
				</port>
				<port id="1" precision="FP32">
					<dim>-1</dim>
					<dim>8</dim>
					<dim>-1</dim>
					<dim>64</dim>
				</port>
			</input>
			<output>
				<port id="2" precision="FP32" names="514">
					<dim>-1</dim>
					<dim>8</dim>
					<dim>-1</dim>
					<dim>128</dim>
				</port>
			</output>
		</layer>
		<layer id="156" name="__module.model.layers.0.self_attn/aten::mul/Multiply_3" type="Multiply" version="opset1">
			<data auto_broadcast="numpy" />
			<input>
				<port id="0" precision="FP32">
					<dim>-1</dim>
					<dim>8</dim>
					<dim>-1</dim>
					<dim>128</dim>
				</port>
				<port id="1" precision="FP32">
					<dim>-1</dim>
					<dim>1</dim>
					<dim>-1</dim>
					<dim>128</dim>
				</port>
			</input>
			<output>
				<port id="2" precision="FP32" names="515">
					<dim>-1</dim>
					<dim>8</dim>
					<dim>-1</dim>
					<dim>128</dim>
				</port>
			</output>
		</layer>
		<layer id="157" name="__module.model.layers.0.self_attn/aten::add/Add_1" type="Add" version="opset1">
			<data auto_broadcast="numpy" />
			<input>
				<port id="0" precision="FP32">
					<dim>-1</dim>
					<dim>8</dim>
					<dim>-1</dim>
					<dim>128</dim>
				</port>
				<port id="1" precision="FP32">
					<dim>-1</dim>
					<dim>8</dim>
					<dim>-1</dim>
					<dim>128</dim>
				</port>
			</input>
			<output>
				<port id="2" precision="FP32" names="516,key_states.1">
					<dim>-1</dim>
					<dim>8</dim>
					<dim>-1</dim>
					<dim>128</dim>
				</port>
			</output>
		</layer>
		<layer id="158" name="__module.model.layers.0.self_attn/aten::cat/Concat_2" type="Concat" version="opset1">
			<data axis="-2" />
			<input>
				<port id="0" precision="FP32">
					<dim>-1</dim>
					<dim>8</dim>
					<dim>-1</dim>
					<dim>128</dim>
				</port>
				<port id="1" precision="FP32">
					<dim>-1</dim>
					<dim>8</dim>
					<dim>-1</dim>
					<dim>128</dim>
				</port>
			</input>
			<output>
				<port id="2" precision="FP32" names="526,527,hidden_states.25">
					<dim>-1</dim>
					<dim>8</dim>
					<dim>-1</dim>
					<dim>128</dim>
				</port>
			</output>
		</layer>
		<layer id="159" name="269" type="Const" version="opset1">
			<data element_type="i64" shape="" offset="381695948" size="8" />
			<output>
				<port id="0" precision="I64" names="269" />
			</output>
		</layer>
		<layer id="160" name="__module.model.layers.0.self_attn/aten::unsqueeze/Unsqueeze_2" type="Unsqueeze" version="opset1">
			<input>
				<port id="0" precision="FP32">
					<dim>-1</dim>
					<dim>8</dim>
					<dim>-1</dim>
					<dim>128</dim>
				</port>
				<port id="1" precision="I64" />
			</input>
			<output>
				<port id="2" precision="FP32" names="528,529,530">
					<dim>-1</dim>
					<dim>8</dim>
					<dim>1</dim>
					<dim>-1</dim>
					<dim>128</dim>
				</port>
			</output>
		</layer>
		<layer id="161" name="__module.model.layers.0.self_attn/aten::size/ShapeOf_2" type="ShapeOf" version="opset3">
			<data output_type="i64" />
			<input>
				<port id="0" precision="FP32">
					<dim>-1</dim>
					<dim>8</dim>
					<dim>-1</dim>
					<dim>128</dim>
				</port>
			</input>
			<output>
				<port id="1" precision="I64">
					<dim>4</dim>
				</port>
			</output>
		</layer>
		<layer id="162" name="Constant_89572" type="Const" version="opset1">
			<data element_type="i64" shape="2" offset="381695956" size="16" />
			<output>
				<port id="0" precision="I64">
					<dim>2</dim>
				</port>
			</output>
		</layer>
		<layer id="163" name="Constant_89573" type="Const" version="opset1">
			<data element_type="i64" shape="" offset="4" size="8" />
			<output>
				<port id="0" precision="I64" />
			</output>
		</layer>
		<layer id="164" name="Gather_89574" type="Gather" version="opset8">
			<data batch_dims="0" />
			<input>
				<port id="0" precision="I64">
					<dim>4</dim>
				</port>
				<port id="1" precision="I64">
					<dim>2</dim>
				</port>
				<port id="2" precision="I64" />
			</input>
			<output>
				<port id="3" precision="I64">
					<dim>2</dim>
				</port>
			</output>
		</layer>
		<layer id="165" name="Constant_87428" type="Const" version="opset1">
			<data element_type="i64" shape="1" offset="381695972" size="8" />
			<output>
				<port id="0" precision="I64">
					<dim>1</dim>
				</port>
			</output>
		</layer>
		<layer id="166" name="ShapeOf_102197" type="ShapeOf" version="opset3">
			<data output_type="i64" />
			<input>
				<port id="0" precision="FP32">
					<dim>-1</dim>
					<dim>8</dim>
					<dim>-1</dim>
					<dim>128</dim>
				</port>
			</input>
			<output>
				<port id="1" precision="I64">
					<dim>4</dim>
				</port>
			</output>
		</layer>
		<layer id="167" name="Constant_102198" type="Const" version="opset1">
			<data element_type="i64" shape="" offset="381695948" size="8" />
			<output>
				<port id="0" precision="I64" />
			</output>
		</layer>
		<layer id="168" name="Constant_102199" type="Const" version="opset1">
			<data element_type="i64" shape="" offset="4" size="8" />
			<output>
				<port id="0" precision="I64" />
			</output>
		</layer>
		<layer id="169" name="Gather_102200" type="Gather" version="opset8">
			<data batch_dims="0" />
			<input>
				<port id="0" precision="I64">
					<dim>4</dim>
				</port>
				<port id="1" precision="I64" />
				<port id="2" precision="I64" />
			</input>
			<output>
				<port id="3" precision="I64" names="347,357" />
			</output>
		</layer>
		<layer id="170" name="Constant_102218" type="Const" version="opset1">
			<data element_type="i64" shape="1" offset="380333420" size="8" />
			<output>
				<port id="0" precision="I64">
					<dim>1</dim>
				</port>
			</output>
		</layer>
		<layer id="171" name="Reshape_102219" type="Reshape" version="opset1">
			<data special_zero="false" />
			<input>
				<port id="0" precision="I64" />
				<port id="1" precision="I64">
					<dim>1</dim>
				</port>
			</input>
			<output>
				<port id="2" precision="I64">
					<dim>1</dim>
				</port>
			</output>
		</layer>
		<layer id="172" name="Constant_102206" type="Const" version="opset1">
			<data element_type="i64" shape="" offset="380333420" size="8" />
			<output>
				<port id="0" precision="I64" />
			</output>
		</layer>
		<layer id="173" name="Constant_102207" type="Const" version="opset1">
			<data element_type="i64" shape="" offset="4" size="8" />
			<output>
				<port id="0" precision="I64" />
			</output>
		</layer>
		<layer id="174" name="Gather_102208" type="Gather" version="opset8">
			<data batch_dims="0" />
			<input>
				<port id="0" precision="I64">
					<dim>3</dim>
				</port>
				<port id="1" precision="I64" />
				<port id="2" precision="I64" />
			</input>
			<output>
				<port id="3" precision="I64" names="349" />
			</output>
		</layer>
		<layer id="175" name="Constant_102220" type="Const" version="opset1">
			<data element_type="i64" shape="1" offset="380333420" size="8" />
			<output>
				<port id="0" precision="I64">
					<dim>1</dim>
				</port>
			</output>
		</layer>
		<layer id="176" name="Reshape_102221" type="Reshape" version="opset1">
			<data special_zero="false" />
			<input>
				<port id="0" precision="I64" />
				<port id="1" precision="I64">
					<dim>1</dim>
				</port>
			</input>
			<output>
				<port id="2" precision="I64">
					<dim>1</dim>
				</port>
			</output>
		</layer>
		<layer id="177" name="Add_102222" type="Add" version="opset1">
			<data auto_broadcast="numpy" />
			<input>
				<port id="0" precision="I64">
					<dim>1</dim>
				</port>
				<port id="1" precision="I64">
					<dim>1</dim>
				</port>
			</input>
			<output>
				<port id="2" precision="I64" names="1055,1084,1232,1261,1409,1438,1586,1615,1763,1792,1940,1969,2117,2146,2294,2323,2471,2500,2648,2677,2825,2854,3002,3031,3179,3208,3356,3385,3533,3562,3710,3739,3887,3916,4064,4093,4241,4270,4418,4447,4595,4624,4772,4801,4949,4978,5126,5155,524,5303,5332,5480,5509,553,5657,5686,5834,5863,6011,6040,6188,6217,6365,6394,6542,6571,6719,6748,701,730,878,907">
					<dim>1</dim>
				</port>
			</output>
		</layer>
		<layer id="178" name="Constant_87431" type="Const" version="opset1">
			<data element_type="i64" shape="1" offset="20" size="8" />
			<output>
				<port id="0" precision="I64">
					<dim>1</dim>
				</port>
			</output>
		</layer>
		<layer id="179" name="__module.model.layers.0.self_attn/prim::ListConstruct/SequenceMark_2" type="Concat" version="opset1">
			<data axis="0" />
			<input>
				<port id="0" precision="I64">
					<dim>2</dim>
				</port>
				<port id="1" precision="I64">
					<dim>1</dim>
				</port>
				<port id="2" precision="I64">
					<dim>1</dim>
				</port>
				<port id="3" precision="I64">
					<dim>1</dim>
				</port>
			</input>
			<output>
				<port id="4" precision="I64">
					<dim>5</dim>
				</port>
			</output>
		</layer>
		<layer id="180" name="__module.model.layers.0.self_attn/aten::expand/Broadcast" type="Broadcast" version="opset3">
			<data mode="bidirectional" />
			<input>
				<port id="0" precision="FP32">
					<dim>-1</dim>
					<dim>8</dim>
					<dim>1</dim>
					<dim>-1</dim>
					<dim>128</dim>
				</port>
				<port id="1" precision="I64">
					<dim>5</dim>
				</port>
			</input>
			<output>
				<port id="2" precision="FP32" names="532,hidden_states.27">
					<dim>-1</dim>
					<dim>8</dim>
					<dim>4</dim>
					<dim>-1</dim>
					<dim>128</dim>
				</port>
			</output>
		</layer>
		<layer id="181" name="Constant_110818" type="Const" version="opset1">
			<data element_type="i64" shape="4" offset="381695980" size="32" />
			<output>
				<port id="0" precision="I64">
					<dim>4</dim>
				</port>
			</output>
		</layer>
		<layer id="182" name="__module.model.layers.0.self_attn/aten::reshape/Reshape" type="Reshape" version="opset1">
			<data special_zero="true" />
			<input>
				<port id="0" precision="FP32">
					<dim>-1</dim>
					<dim>8</dim>
					<dim>4</dim>
					<dim>-1</dim>
					<dim>128</dim>
				</port>
				<port id="1" precision="I64">
					<dim>4</dim>
				</port>
			</input>
			<output>
				<port id="2" precision="FP32" names="536,key.1">
					<dim>-1</dim>
					<dim>32</dim>
					<dim>-1</dim>
					<dim>128</dim>
				</port>
			</output>
		</layer>
		<layer id="183" name="Constant_114720" type="Const" version="opset1">
			<data element_type="f32" shape="" offset="0" size="4" />
			<output>
				<port id="0" precision="FP32" />
			</output>
		</layer>
		<layer id="184" name="Constant_114713" type="Const" version="opset1">
			<data element_type="i64" shape="1" offset="12" size="8" />
			<output>
				<port id="0" precision="I64">
					<dim>1</dim>
				</port>
			</output>
		</layer>
		<layer id="185" name="Constant_114715" type="Const" version="opset1">
			<data element_type="i64" shape="1" offset="4" size="8" />
			<output>
				<port id="0" precision="I64">
					<dim>1</dim>
				</port>
			</output>
		</layer>
		<layer id="186" name="Constant_114717" type="Const" version="opset1">
			<data element_type="i64" shape="1" offset="20" size="8" />
			<output>
				<port id="0" precision="I64">
					<dim>1</dim>
				</port>
			</output>
		</layer>
		<layer id="187" name="Concat_114718" type="Concat" version="opset1">
			<data axis="0" />
			<input>
				<port id="0" precision="I64">
					<dim>1</dim>
				</port>
				<port id="1" precision="I64">
					<dim>1</dim>
				</port>
				<port id="2" precision="I64">
					<dim>1</dim>
				</port>
				<port id="3" precision="I64">
					<dim>1</dim>
				</port>
			</input>
			<output>
				<port id="4" precision="I64">
					<dim>4</dim>
				</port>
			</output>
		</layer>
		<layer id="188" name="Broadcast_114721" type="Broadcast" version="opset3">
			<data mode="numpy" />
			<input>
				<port id="0" precision="FP32" />
				<port id="1" precision="I64">
					<dim>4</dim>
				</port>
			</input>
			<output>
				<port id="2" precision="FP32">
					<dim>-1</dim>
					<dim>8</dim>
					<dim>0</dim>
					<dim>128</dim>
				</port>
			</output>
		</layer>
		<layer id="189" name="ReadValue_114098" type="ReadValue" version="opset6">
			<data variable_id="past_key_values.0.valuepresent.0.value" variable_type="f32" variable_shape="?,8,?,128" />
			<input>
				<port id="0" precision="FP32">
					<dim>-1</dim>
					<dim>8</dim>
					<dim>0</dim>
					<dim>128</dim>
				</port>
			</input>
			<output>
				<port id="1" precision="FP32" names="past_key_values.0.value">
					<dim>-1</dim>
					<dim>8</dim>
					<dim>-1</dim>
					<dim>128</dim>
				</port>
			</output>
		</layer>
		<layer id="190" name="Constant_113442" type="Const" version="opset1">
			<data element_type="i64" shape="" offset="4" size="8" />
			<output>
				<port id="0" precision="I64" />
			</output>
		</layer>
		<layer id="191" name="Gather_113443" type="Gather" version="opset8">
			<data batch_dims="0" />
			<input>
				<port id="0" precision="FP32">
					<dim>-1</dim>
					<dim>8</dim>
					<dim>-1</dim>
					<dim>128</dim>
				</port>
				<port id="1" precision="I32">
					<dim>-1</dim>
				</port>
				<port id="2" precision="I64" />
			</input>
			<output>
				<port id="3" precision="FP32">
					<dim>-1</dim>
					<dim>8</dim>
					<dim>-1</dim>
					<dim>128</dim>
				</port>
			</output>
		</layer>
		<layer id="192" name="self.model.layers.0.self_attn.v_proj.weight" type="Const" version="opset1">
			<data element_type="u4" shape="1024, 20, 128" offset="381696012" size="1310720" />
			<output>
				<port id="0" precision="U4">
					<dim>1024</dim>
					<dim>20</dim>
					<dim>128</dim>
				</port>
			</output>
		</layer>
		<layer id="193" name="Convert_1075955" type="Convert" version="opset1">
			<data destination_type="f16" />
			<input>
				<port id="0" precision="U4">
					<dim>1024</dim>
					<dim>20</dim>
					<dim>128</dim>
				</port>
			</input>
			<output>
				<port id="1" precision="FP16">
					<dim>1024</dim>
					<dim>20</dim>
					<dim>128</dim>
				</port>
			</output>
		</layer>
		<layer id="194" name="self.model.layers.0.self_attn.v_proj.weight/zero_point" type="Const" version="opset1">
			<data element_type="u4" shape="1024, 20, 1" offset="383006732" size="10240" />
			<output>
				<port id="0" precision="U4">
					<dim>1024</dim>
					<dim>20</dim>
					<dim>1</dim>
				</port>
			</output>
		</layer>
		<layer id="195" name="Convert_1075958" type="Convert" version="opset1">
			<data destination_type="f16" />
			<input>
				<port id="0" precision="U4">
					<dim>1024</dim>
					<dim>20</dim>
					<dim>1</dim>
				</port>
			</input>
			<output>
				<port id="1" precision="FP16">
					<dim>1024</dim>
					<dim>20</dim>
					<dim>1</dim>
				</port>
			</output>
		</layer>
		<layer id="196" name="self.model.layers.0.self_attn.v_proj.weight/zero_point/subtract" type="Subtract" version="opset1">
			<data auto_broadcast="numpy" />
			<input>
				<port id="0" precision="FP16">
					<dim>1024</dim>
					<dim>20</dim>
					<dim>128</dim>
				</port>
				<port id="1" precision="FP16">
					<dim>1024</dim>
					<dim>20</dim>
					<dim>1</dim>
				</port>
			</input>
			<output>
				<port id="2" precision="FP16">
					<dim>1024</dim>
					<dim>20</dim>
					<dim>128</dim>
				</port>
			</output>
		</layer>
		<layer id="197" name="self.model.layers.0.self_attn.v_proj.weight/scale" type="Const" version="opset1">
			<data element_type="f16" shape="1024, 20, 1" offset="383016972" size="40960" />
			<output>
				<port id="0" precision="FP16">
					<dim>1024</dim>
					<dim>20</dim>
					<dim>1</dim>
				</port>
			</output>
		</layer>
		<layer id="198" name="self.model.layers.0.self_attn.v_proj.weight/fq_weights_1" type="Multiply" version="opset1">
			<data auto_broadcast="numpy" />
			<input>
				<port id="0" precision="FP16">
					<dim>1024</dim>
					<dim>20</dim>
					<dim>128</dim>
				</port>
				<port id="1" precision="FP16">
					<dim>1024</dim>
					<dim>20</dim>
					<dim>1</dim>
				</port>
			</input>
			<output>
				<port id="2" precision="FP16">
					<dim>1024</dim>
					<dim>20</dim>
					<dim>128</dim>
				</port>
			</output>
		</layer>
		<layer id="199" name="Constant_1075963" type="Const" version="opset1">
			<data element_type="i64" shape="2" offset="381695900" size="16" />
			<output>
				<port id="0" precision="I64">
					<dim>2</dim>
				</port>
			</output>
		</layer>
		<layer id="200" name="Reshape_1075964" type="Reshape" version="opset1">
			<data special_zero="false" />
			<input>
				<port id="0" precision="FP16">
					<dim>1024</dim>
					<dim>20</dim>
					<dim>128</dim>
				</port>
				<port id="1" precision="I64">
					<dim>2</dim>
				</port>
			</input>
			<output>
				<port id="2" precision="FP16">
					<dim>1024</dim>
					<dim>2560</dim>
				</port>
			</output>
		</layer>
		<layer id="201" name="__module.model.layers.0.self_attn.v_proj/ov_ext::linear/Convert" type="Convert" version="opset1">
			<data destination_type="f32" />
			<rt_info>
				<attribute name="decompression" version="0" />
			</rt_info>
			<input>
				<port id="0" precision="FP16">
					<dim>1024</dim>
					<dim>2560</dim>
				</port>
			</input>
			<output>
				<port id="1" precision="FP32">
					<dim>1024</dim>
					<dim>2560</dim>
				</port>
			</output>
		</layer>
		<layer id="202" name="__module.model.layers.0.self_attn.v_proj/ov_ext::linear/MatMul" type="MatMul" version="opset1">
			<data transpose_a="false" transpose_b="true" />
			<input>
				<port id="0" precision="FP32">
					<dim>-1</dim>
					<dim>-1</dim>
					<dim>2560</dim>
				</port>
				<port id="1" precision="FP32">
					<dim>1024</dim>
					<dim>2560</dim>
				</port>
			</input>
			<output>
				<port id="2" precision="FP32" names="479">
					<dim>-1</dim>
					<dim>-1</dim>
					<dim>1024</dim>
				</port>
			</output>
		</layer>
		<layer id="203" name="Constant_110819" type="Const" version="opset1">
			<data element_type="i64" shape="4" offset="381695916" size="32" />
			<output>
				<port id="0" precision="I64">
					<dim>4</dim>
				</port>
			</output>
		</layer>
		<layer id="204" name="__module.model.layers.0.self_attn/aten::view/Reshape_2" type="Reshape" version="opset1">
			<data special_zero="true" />
			<input>
				<port id="0" precision="FP32">
					<dim>-1</dim>
					<dim>-1</dim>
					<dim>1024</dim>
				</port>
				<port id="1" precision="I64">
					<dim>4</dim>
				</port>
			</input>
			<output>
				<port id="2" precision="FP32" names="481">
					<dim>-1</dim>
					<dim>-1</dim>
					<dim>8</dim>
					<dim>128</dim>
				</port>
			</output>
		</layer>
		<layer id="205" name="__module.model.layers.0.self_attn/aten::transpose/Constant_2" type="Const" version="opset1">
			<data element_type="i32" shape="4" offset="380333148" size="16" />
			<output>
				<port id="0" precision="I32">
					<dim>4</dim>
				</port>
			</output>
		</layer>
		<layer id="206" name="__module.model.layers.0.self_attn/aten::transpose/Transpose_2" type="Transpose" version="opset1">
			<input>
				<port id="0" precision="FP32">
					<dim>-1</dim>
					<dim>-1</dim>
					<dim>8</dim>
					<dim>128</dim>
				</port>
				<port id="1" precision="I32">
					<dim>4</dim>
				</port>
			</input>
			<output>
				<port id="2" precision="FP32" names="482,value_states.1">
					<dim>-1</dim>
					<dim>8</dim>
					<dim>-1</dim>
					<dim>128</dim>
				</port>
			</output>
		</layer>
		<layer id="207" name="__module.model.layers.0.self_attn/aten::cat/Concat_3" type="Concat" version="opset1">
			<data axis="-2" />
			<input>
				<port id="0" precision="FP32">
					<dim>-1</dim>
					<dim>8</dim>
					<dim>-1</dim>
					<dim>128</dim>
				</port>
				<port id="1" precision="FP32">
					<dim>-1</dim>
					<dim>8</dim>
					<dim>-1</dim>
					<dim>128</dim>
				</port>
			</input>
			<output>
				<port id="2" precision="FP32" names="542,543,hidden_states.29">
					<dim>-1</dim>
					<dim>8</dim>
					<dim>-1</dim>
					<dim>128</dim>
				</port>
			</output>
		</layer>
		<layer id="208" name="__module.model.layers.0.self_attn/aten::unsqueeze/Unsqueeze_3" type="Unsqueeze" version="opset1">
			<input>
				<port id="0" precision="FP32">
					<dim>-1</dim>
					<dim>8</dim>
					<dim>-1</dim>
					<dim>128</dim>
				</port>
				<port id="1" precision="I64" />
			</input>
			<output>
				<port id="2" precision="FP32" names="544,545,546">
					<dim>-1</dim>
					<dim>8</dim>
					<dim>1</dim>
					<dim>-1</dim>
					<dim>128</dim>
				</port>
			</output>
		</layer>
		<layer id="209" name="__module.model.layers.0.self_attn/aten::expand/Broadcast_1" type="Broadcast" version="opset3">
			<data mode="bidirectional" />
			<input>
				<port id="0" precision="FP32">
					<dim>-1</dim>
					<dim>8</dim>
					<dim>1</dim>
					<dim>-1</dim>
					<dim>128</dim>
				</port>
				<port id="1" precision="I64">
					<dim>5</dim>
				</port>
			</input>
			<output>
				<port id="2" precision="FP32" names="548,hidden_states.31">
					<dim>-1</dim>
					<dim>8</dim>
					<dim>4</dim>
					<dim>-1</dim>
					<dim>128</dim>
				</port>
			</output>
		</layer>
		<layer id="210" name="Constant_110820" type="Const" version="opset1">
			<data element_type="i64" shape="4" offset="381695980" size="32" />
			<output>
				<port id="0" precision="I64">
					<dim>4</dim>
				</port>
			</output>
		</layer>
		<layer id="211" name="__module.model.layers.0.self_attn/aten::reshape/Reshape_1" type="Reshape" version="opset1">
			<data special_zero="true" />
			<input>
				<port id="0" precision="FP32">
					<dim>-1</dim>
					<dim>8</dim>
					<dim>4</dim>
					<dim>-1</dim>
					<dim>128</dim>
				</port>
				<port id="1" precision="I64">
					<dim>4</dim>
				</port>
			</input>
			<output>
				<port id="2" precision="FP32" names="552,value.1">
					<dim>-1</dim>
					<dim>32</dim>
					<dim>-1</dim>
					<dim>128</dim>
				</port>
			</output>
		</layer>
		<layer id="212" name="__module.model/aten::new_ones/Broadcast" type="Const" version="opset1">
			<data element_type="boolean" shape="" offset="383057932" size="1" />
			<output>
				<port id="0" precision="BOOL" names="380,result.1" />
			</output>
		</layer>
		<layer id="213" name="__module.model/aten::arange/Constant" type="Const" version="opset1">
			<data element_type="i32" shape="" offset="0" size="4" />
			<output>
				<port id="0" precision="I32" />
			</output>
		</layer>
		<layer id="214" name="__module.model/aten::size/Constant_3" type="Const" version="opset1">
			<data element_type="i32" shape="" offset="0" size="4" />
			<output>
				<port id="0" precision="I32" />
			</output>
		</layer>
		<layer id="215" name="__module.model/aten::size/Gather_3" type="Squeeze" version="opset1">
			<input>
				<port id="0" precision="I64">
					<dim>1</dim>
				</port>
				<port id="1" precision="I32" />
			</input>
			<output>
				<port id="2" precision="I64" names="355,363" />
			</output>
		</layer>
		<layer id="216" name="__module.model/aten::add/Add_1" type="Add" version="opset1">
			<data auto_broadcast="numpy" />
			<input>
				<port id="0" precision="I64" />
				<port id="1" precision="I64" />
			</input>
			<output>
				<port id="2" precision="I64" names="359,360,kv_length" />
			</output>
		</layer>
		<layer id="217" name="__module.model/aten::arange/Constant_2" type="Const" version="opset1">
			<data element_type="i32" shape="" offset="383057933" size="4" />
			<output>
				<port id="0" precision="I32" />
			</output>
		</layer>
		<layer id="218" name="__module.model/aten::arange/Range_1" type="Range" version="opset4">
			<data output_type="i64" />
			<input>
				<port id="0" precision="I32" />
				<port id="1" precision="I64" />
				<port id="2" precision="I32" />
			</input>
			<output>
				<port id="3" precision="I64" names="373">
					<dim>-1</dim>
				</port>
			</output>
		</layer>
		<layer id="219" name="263" type="Const" version="opset1">
			<data element_type="i64" shape="" offset="4" size="8" />
			<output>
				<port id="0" precision="I64" names="263" />
			</output>
		</layer>
		<layer id="220" name="__module.model/aten::unsqueeze/Unsqueeze" type="Unsqueeze" version="opset1">
			<input>
				<port id="0" precision="I64">
					<dim>-1</dim>
				</port>
				<port id="1" precision="I64" />
			</input>
			<output>
				<port id="2" precision="I64" names="374">
					<dim>1</dim>
					<dim>-1</dim>
				</port>
			</output>
		</layer>
		<layer id="221" name="__module.model/aten::unsqueeze/Unsqueeze_1" type="Unsqueeze" version="opset1">
			<input>
				<port id="0" precision="I64">
					<dim>1</dim>
					<dim>-1</dim>
				</port>
				<port id="1" precision="I64" />
			</input>
			<output>
				<port id="2" precision="I64" names="375">
					<dim>1</dim>
					<dim>1</dim>
					<dim>-1</dim>
				</port>
			</output>
		</layer>
		<layer id="222" name="__module.model/aten::unsqueeze/Unsqueeze_2" type="Unsqueeze" version="opset1">
			<input>
				<port id="0" precision="I64">
					<dim>1</dim>
					<dim>1</dim>
					<dim>-1</dim>
				</port>
				<port id="1" precision="I64" />
			</input>
			<output>
				<port id="2" precision="I64" names="376,377,378,kv_idx">
					<dim>1</dim>
					<dim>1</dim>
					<dim>1</dim>
					<dim>-1</dim>
				</port>
			</output>
		</layer>
		<layer id="223" name="__module.model/aten::add/Add" type="Add" version="opset1">
			<data auto_broadcast="numpy" />
			<input>
				<port id="0" precision="I64" />
				<port id="1" precision="I64" />
			</input>
			<output>
				<port id="2" precision="I64" names="351" />
			</output>
		</layer>
		<layer id="224" name="__module.model/aten::arange/Constant_1" type="Const" version="opset1">
			<data element_type="i32" shape="" offset="383057933" size="4" />
			<output>
				<port id="0" precision="I32" />
			</output>
		</layer>
		<layer id="225" name="__module.model/aten::arange/Range" type="Range" version="opset4">
			<data output_type="i64" />
			<input>
				<port id="0" precision="I64" />
				<port id="1" precision="I64" />
				<port id="2" precision="I32" />
			</input>
			<output>
				<port id="3" precision="I64" names="353,cache_position">
					<dim>-1</dim>
				</port>
			</output>
		</layer>
		<layer id="226" name="__module.model/aten::unsqueeze/Unsqueeze_3" type="Unsqueeze" version="opset1">
			<input>
				<port id="0" precision="I64">
					<dim>-1</dim>
				</port>
				<port id="1" precision="I64" />
			</input>
			<output>
				<port id="2" precision="I64" names="364">
					<dim>1</dim>
					<dim>-1</dim>
				</port>
			</output>
		</layer>
		<layer id="227" name="__module.model/aten::unsqueeze/Unsqueeze_4" type="Unsqueeze" version="opset1">
			<input>
				<port id="0" precision="I64">
					<dim>1</dim>
					<dim>-1</dim>
				</port>
				<port id="1" precision="I64" />
			</input>
			<output>
				<port id="2" precision="I64" names="365,366">
					<dim>1</dim>
					<dim>1</dim>
					<dim>-1</dim>
				</port>
			</output>
		</layer>
		<layer id="228" name="261" type="Const" version="opset1">
			<data element_type="i64" shape="" offset="380333456" size="8" />
			<output>
				<port id="0" precision="I64" names="261" />
			</output>
		</layer>
		<layer id="229" name="__module.model/aten::unsqueeze/Unsqueeze_5" type="Unsqueeze" version="opset1">
			<input>
				<port id="0" precision="I64">
					<dim>1</dim>
					<dim>1</dim>
					<dim>-1</dim>
				</port>
				<port id="1" precision="I64" />
			</input>
			<output>
				<port id="2" precision="I64" names="367,q_idx">
					<dim>1</dim>
					<dim>1</dim>
					<dim>-1</dim>
					<dim>1</dim>
				</port>
			</output>
		</layer>
		<layer id="230" name="__module.model/aten::le/LessEqual" type="LessEqual" version="opset1">
			<data auto_broadcast="numpy" />
			<input>
				<port id="0" precision="I64">
					<dim>1</dim>
					<dim>1</dim>
					<dim>1</dim>
					<dim>-1</dim>
				</port>
				<port id="1" precision="I64">
					<dim>1</dim>
					<dim>1</dim>
					<dim>-1</dim>
					<dim>1</dim>
				</port>
			</input>
			<output>
				<port id="2" precision="BOOL" names="381,382">
					<dim>1</dim>
					<dim>1</dim>
					<dim>-1</dim>
					<dim>-1</dim>
				</port>
			</output>
		</layer>
		<layer id="231" name="__module.model/aten::__and__/BitwiseAnd" type="BitwiseAnd" version="opset13">
			<data auto_broadcast="numpy" />
			<input>
				<port id="0" precision="BOOL" />
				<port id="1" precision="BOOL">
					<dim>1</dim>
					<dim>1</dim>
					<dim>-1</dim>
					<dim>-1</dim>
				</port>
			</input>
			<output>
				<port id="2" precision="BOOL" names="383,result">
					<dim>1</dim>
					<dim>1</dim>
					<dim>-1</dim>
					<dim>-1</dim>
				</port>
			</output>
		</layer>
		<layer id="232" name="__module.model/aten::to/Convert_1" type="Convert" version="opset1">
			<data destination_type="boolean" />
			<input>
				<port id="0" precision="I64">
					<dim>-1</dim>
					<dim>-1</dim>
				</port>
			</input>
			<output>
				<port id="1" precision="BOOL" names="354,attention_mask.3">
					<dim>-1</dim>
					<dim>-1</dim>
				</port>
			</output>
		</layer>
		<layer id="233" name="__module.model/aten::index/ShapeOf_1" type="ShapeOf" version="opset3">
			<data output_type="i32" />
			<input>
				<port id="0" precision="BOOL">
					<dim>-1</dim>
					<dim>-1</dim>
				</port>
			</input>
			<output>
				<port id="1" precision="I32">
					<dim>2</dim>
				</port>
			</output>
		</layer>
		<layer id="234" name="Constant_44748" type="Const" version="opset1">
			<data element_type="i32" shape="" offset="0" size="4" />
			<output>
				<port id="0" precision="I32" />
			</output>
		</layer>
		<layer id="235" name="__module.model/aten::index/ReduceProd" type="ReduceProd" version="opset1">
			<data keep_dims="true" />
			<input>
				<port id="0" precision="I32">
					<dim>2</dim>
				</port>
				<port id="1" precision="I32" />
			</input>
			<output>
				<port id="2" precision="I32">
					<dim>1</dim>
				</port>
			</output>
		</layer>
		<layer id="236" name="Constant_44750" type="Const" version="opset1">
			<data element_type="i32" shape="1" offset="380333464" size="4" />
			<output>
				<port id="0" precision="I32">
					<dim>1</dim>
				</port>
			</output>
		</layer>
		<layer id="237" name="__module.model/aten::index/Concat" type="Concat" version="opset1">
			<data axis="0" />
			<input>
				<port id="0" precision="I32">
					<dim>1</dim>
				</port>
				<port id="1" precision="I32">
					<dim>1</dim>
				</port>
			</input>
			<output>
				<port id="2" precision="I32">
					<dim>2</dim>
				</port>
			</output>
		</layer>
		<layer id="238" name="__module.model/aten::index/Reshape" type="Reshape" version="opset1">
			<data special_zero="true" />
			<input>
				<port id="0" precision="BOOL">
					<dim>-1</dim>
					<dim>-1</dim>
				</port>
				<port id="1" precision="I32">
					<dim>2</dim>
				</port>
			</input>
			<output>
				<port id="2" precision="BOOL">
					<dim>-1</dim>
					<dim>-1</dim>
				</port>
			</output>
		</layer>
		<layer id="239" name="__module.model/aten::index/Convert" type="Convert" version="opset1">
			<data destination_type="i32" />
			<input>
				<port id="0" precision="I64">
					<dim>1</dim>
					<dim>1</dim>
					<dim>1</dim>
					<dim>-1</dim>
				</port>
			</input>
			<output>
				<port id="1" precision="I32">
					<dim>1</dim>
					<dim>1</dim>
					<dim>1</dim>
					<dim>-1</dim>
				</port>
			</output>
		</layer>
		<layer id="240" name="__module.model/aten::arange/Constant_3" type="Const" version="opset1">
			<data element_type="i32" shape="" offset="0" size="4" />
			<output>
				<port id="0" precision="I32" />
			</output>
		</layer>
		<layer id="241" name="Squeeze_102211" type="Squeeze" version="opset1">
			<input>
				<port id="0" precision="I64">
					<dim>1</dim>
				</port>
			</input>
			<output>
				<port id="1" precision="I64" names="362" />
			</output>
		</layer>
		<layer id="242" name="__module.model/aten::arange/Constant_4" type="Const" version="opset1">
			<data element_type="i32" shape="" offset="383057933" size="4" />
			<output>
				<port id="0" precision="I32" />
			</output>
		</layer>
		<layer id="243" name="__module.model/aten::arange/Range_2" type="Range" version="opset4">
			<data output_type="i64" />
			<input>
				<port id="0" precision="I32" />
				<port id="1" precision="I64" />
				<port id="2" precision="I32" />
			</input>
			<output>
				<port id="3" precision="I64" names="368,369">
					<dim>-1</dim>
				</port>
			</output>
		</layer>
		<layer id="244" name="__module.model/aten::unsqueeze/Unsqueeze_6" type="Unsqueeze" version="opset1">
			<input>
				<port id="0" precision="I64">
					<dim>-1</dim>
				</port>
				<port id="1" precision="I64" />
			</input>
			<output>
				<port id="2" precision="I64" names="370">
					<dim>-1</dim>
					<dim>1</dim>
				</port>
			</output>
		</layer>
		<layer id="245" name="__module.model/aten::unsqueeze/Unsqueeze_7" type="Unsqueeze" version="opset1">
			<input>
				<port id="0" precision="I64">
					<dim>-1</dim>
					<dim>1</dim>
				</port>
				<port id="1" precision="I64" />
			</input>
			<output>
				<port id="2" precision="I64" names="371">
					<dim>-1</dim>
					<dim>1</dim>
					<dim>1</dim>
				</port>
			</output>
		</layer>
		<layer id="246" name="__module.model/aten::unsqueeze/Unsqueeze_8" type="Unsqueeze" version="opset1">
			<input>
				<port id="0" precision="I64">
					<dim>-1</dim>
					<dim>1</dim>
					<dim>1</dim>
				</port>
				<port id="1" precision="I64" />
			</input>
			<output>
				<port id="2" precision="I64" names="372,batch_idx">
					<dim>-1</dim>
					<dim>1</dim>
					<dim>1</dim>
					<dim>1</dim>
				</port>
			</output>
		</layer>
		<layer id="247" name="__module.model/aten::index/Convert_3" type="Convert" version="opset1">
			<data destination_type="i32" />
			<input>
				<port id="0" precision="I64">
					<dim>-1</dim>
					<dim>1</dim>
					<dim>1</dim>
					<dim>1</dim>
				</port>
			</input>
			<output>
				<port id="1" precision="I32">
					<dim>-1</dim>
					<dim>1</dim>
					<dim>1</dim>
					<dim>1</dim>
				</port>
			</output>
		</layer>
		<layer id="248" name="__module.model/aten::index/Constant" type="Const" version="opset1">
			<data element_type="i32" shape="" offset="0" size="4" />
			<output>
				<port id="0" precision="I32" />
			</output>
		</layer>
		<layer id="249" name="__module.model/aten::index/Split" type="Split" version="opset1">
			<data num_splits="2" />
			<input>
				<port id="0" precision="I32">
					<dim>2</dim>
				</port>
				<port id="1" precision="I32" />
			</input>
			<output>
				<port id="2" precision="I32">
					<dim>1</dim>
				</port>
				<port id="3" precision="I32">
					<dim>1</dim>
				</port>
			</output>
		</layer>
		<layer id="250" name="__module.model/aten::index/Multiply" type="Multiply" version="opset1">
			<data auto_broadcast="numpy" />
			<input>
				<port id="0" precision="I32">
					<dim>-1</dim>
					<dim>1</dim>
					<dim>1</dim>
					<dim>1</dim>
				</port>
				<port id="1" precision="I32">
					<dim>1</dim>
				</port>
			</input>
			<output>
				<port id="2" precision="I32">
					<dim>-1</dim>
					<dim>1</dim>
					<dim>1</dim>
					<dim>1</dim>
				</port>
			</output>
		</layer>
		<layer id="251" name="__module.model/aten::index/Add" type="Add" version="opset1">
			<data auto_broadcast="numpy" />
			<input>
				<port id="0" precision="I32">
					<dim>1</dim>
					<dim>1</dim>
					<dim>1</dim>
					<dim>-1</dim>
				</port>
				<port id="1" precision="I32">
					<dim>-1</dim>
					<dim>1</dim>
					<dim>1</dim>
					<dim>1</dim>
				</port>
			</input>
			<output>
				<port id="2" precision="I32">
					<dim>-1</dim>
					<dim>1</dim>
					<dim>1</dim>
					<dim>-1</dim>
				</port>
			</output>
		</layer>
		<layer id="252" name="__module.model/aten::index/Gather" type="Gather" version="opset8">
			<data batch_dims="0" />
			<input>
				<port id="0" precision="BOOL">
					<dim>-1</dim>
					<dim>-1</dim>
				</port>
				<port id="1" precision="I32">
					<dim>-1</dim>
					<dim>1</dim>
					<dim>1</dim>
					<dim>-1</dim>
				</port>
				<port id="2" precision="I32" />
			</input>
			<output>
				<port id="3" precision="BOOL">
					<dim>-1</dim>
					<dim>1</dim>
					<dim>1</dim>
					<dim>-1</dim>
					<dim>-1</dim>
				</port>
			</output>
		</layer>
		<layer id="253" name="Constant_69840" type="Const" version="opset1">
			<data element_type="i64" shape="1" offset="374885408" size="8" />
			<output>
				<port id="0" precision="I64">
					<dim>1</dim>
				</port>
			</output>
		</layer>
		<layer id="254" name="__module.model/aten::index/Reshape_8" type="Reshape" version="opset1">
			<data special_zero="false" />
			<input>
				<port id="0" precision="BOOL">
					<dim>-1</dim>
					<dim>1</dim>
					<dim>1</dim>
					<dim>-1</dim>
					<dim>-1</dim>
				</port>
				<port id="1" precision="I64">
					<dim>1</dim>
				</port>
			</input>
			<output>
				<port id="2" precision="BOOL">
					<dim>-1</dim>
				</port>
			</output>
		</layer>
		<layer id="255" name="__module.model/aten::index/ShapeOf_5" type="ShapeOf" version="opset3">
			<data output_type="i32" />
			<input>
				<port id="0" precision="I32">
					<dim>-1</dim>
					<dim>1</dim>
					<dim>1</dim>
					<dim>-1</dim>
				</port>
			</input>
			<output>
				<port id="1" precision="I32">
					<dim>4</dim>
				</port>
			</output>
		</layer>
		<layer id="256" name="__module.model/aten::index/Reshape_12" type="Reshape" version="opset1">
			<data special_zero="false" />
			<input>
				<port id="0" precision="BOOL">
					<dim>-1</dim>
				</port>
				<port id="1" precision="I32">
					<dim>4</dim>
				</port>
			</input>
			<output>
				<port id="2" precision="BOOL" names="385,386">
					<dim>-1</dim>
					<dim>1</dim>
					<dim>1</dim>
					<dim>-1</dim>
				</port>
			</output>
		</layer>
		<layer id="257" name="__module.model/aten::__and__/BitwiseAnd_1" type="BitwiseAnd" version="opset13">
			<data auto_broadcast="numpy" />
			<input>
				<port id="0" precision="BOOL">
					<dim>1</dim>
					<dim>1</dim>
					<dim>-1</dim>
					<dim>-1</dim>
				</port>
				<port id="1" precision="BOOL">
					<dim>-1</dim>
					<dim>1</dim>
					<dim>1</dim>
					<dim>-1</dim>
				</port>
			</input>
			<output>
				<port id="2" precision="BOOL" names="387,causal_mask">
					<dim>-1</dim>
					<dim>1</dim>
					<dim>-1</dim>
					<dim>-1</dim>
				</port>
			</output>
		</layer>
		<layer id="258" name="Constant_87459" type="Const" version="opset1">
			<data element_type="i64" shape="1" offset="380333420" size="8" />
			<output>
				<port id="0" precision="I64">
					<dim>1</dim>
				</port>
			</output>
		</layer>
		<layer id="259" name="Constant_263" type="Const" version="opset1">
			<data element_type="i32" shape="" offset="0" size="4" />
			<output>
				<port id="0" precision="I32" />
			</output>
		</layer>
		<layer id="260" name="Unsqueeze_267" type="Unsqueeze" version="opset1">
			<input>
				<port id="0" precision="I64" />
				<port id="1" precision="I32" />
			</input>
			<output>
				<port id="2" precision="I64">
					<dim>1</dim>
				</port>
			</output>
		</layer>
		<layer id="261" name="__module.model/prim::ListConstruct/SequenceMark" type="Concat" version="opset1">
			<data axis="0" />
			<input>
				<port id="0" precision="I64">
					<dim>1</dim>
				</port>
				<port id="1" precision="I64">
					<dim>1</dim>
				</port>
				<port id="2" precision="I64">
					<dim>1</dim>
				</port>
				<port id="3" precision="I64">
					<dim>1</dim>
				</port>
			</input>
			<output>
				<port id="4" precision="I64">
					<dim>4</dim>
				</port>
			</output>
		</layer>
		<layer id="262" name="__module.model/aten::expand/Broadcast" type="Broadcast" version="opset3">
			<data mode="bidirectional" />
			<input>
				<port id="0" precision="BOOL">
					<dim>-1</dim>
					<dim>1</dim>
					<dim>-1</dim>
					<dim>-1</dim>
				</port>
				<port id="1" precision="I64">
					<dim>4</dim>
				</port>
			</input>
			<output>
				<port id="2" precision="BOOL" names="389,mask">
					<dim>-1</dim>
					<dim>1</dim>
					<dim>-1</dim>
					<dim>-1</dim>
				</port>
			</output>
		</layer>
		<layer id="263" name="__module.model/aten::to/Convert_3" type="Const" version="opset1">
			<data element_type="f32" shape="" offset="0" size="4" />
			<output>
				<port id="0" precision="FP32" names="390" />
			</output>
		</layer>
		<layer id="264" name="__module.model/aten::to/Convert_4" type="Const" version="opset1">
			<data element_type="f32" shape="" offset="383057937" size="4" />
			<output>
				<port id="0" precision="FP32" names="392" />
			</output>
		</layer>
		<layer id="265" name="__module.model/aten::where/Select" type="Select" version="opset1">
			<data auto_broadcast="numpy" />
			<input>
				<port id="0" precision="BOOL">
					<dim>-1</dim>
					<dim>1</dim>
					<dim>-1</dim>
					<dim>-1</dim>
				</port>
				<port id="1" precision="FP32" />
				<port id="2" precision="FP32" />
			</input>
			<output>
				<port id="3" precision="FP32" names="1085,1086,1087,1262,1263,1264,1439,1440,1441,1616,1617,1618,1793,1794,1795,1970,1971,1972,2147,2148,2149,2324,2325,2326,2501,2502,2503,2678,2679,2680,2855,2856,2857,3032,3033,3034,3209,3210,3211,3386,3387,3388,3563,3564,3565,3740,3741,3742,3917,3918,3919,394,4094,4095,4096,4271,4272,4273,4448,4449,4450,4625,4626,4627,4802,4803,4804,4979,4980,4981,5156,5157,5158,5333,5334,5335,5510,5511,5512,554,555,556,5687,5688,5689,5864,5865,5866,6041,6042,6043,6218,6219,6220,6395,6396,6397,6572,6573,6574,6749,6750,6751,731,732,733,908,909,910,attention_mask.5">
					<dim>-1</dim>
					<dim>1</dim>
					<dim>-1</dim>
					<dim>-1</dim>
				</port>
			</output>
		</layer>
		<layer id="266" name="Constant_1473" type="Const" version="opset1">
			<data element_type="i64" shape="1" offset="4" size="8" />
			<output>
				<port id="0" precision="I64">
					<dim>1</dim>
				</port>
			</output>
		</layer>
		<layer id="267" name="Constant_1476" type="Const" version="opset1">
			<data element_type="i64" shape="1" offset="380333420" size="8" />
			<output>
				<port id="0" precision="I64">
					<dim>1</dim>
				</port>
			</output>
		</layer>
		<layer id="268" name="Constant_1471" type="Const" version="opset1">
			<data element_type="i64" shape="1" offset="380333456" size="8" />
			<output>
				<port id="0" precision="I64">
					<dim>1</dim>
				</port>
			</output>
		</layer>
		<layer id="269" name="__module.model.layers.0.self_attn/aten::slice/Slice_15" type="Slice" version="opset8">
			<input>
				<port id="0" precision="FP32">
					<dim>-1</dim>
					<dim>1</dim>
					<dim>-1</dim>
					<dim>-1</dim>
				</port>
				<port id="1" precision="I64">
					<dim>1</dim>
				</port>
				<port id="2" precision="I64">
					<dim>1</dim>
				</port>
				<port id="3" precision="I64">
					<dim>1</dim>
				</port>
				<port id="4" precision="I64">
					<dim>1</dim>
				</port>
			</input>
			<output>
				<port id="5" precision="FP32" names="1088,1265,1442,1619,1796,1973,2150,2327,2504,2681,2858,3035,3212,3389,3566,3743,3920,4097,4274,4451,4628,4805,4982,5159,5336,5513,557,5690,5867,6044,6221,6398,6575,6752,734,911,attention_mask.11,attention_mask.13,attention_mask.15,attention_mask.17,attention_mask.19,attention_mask.21,attention_mask.23,attention_mask.25,attention_mask.27,attention_mask.29,attention_mask.31,attention_mask.33,attention_mask.35,attention_mask.37,attention_mask.39,attention_mask.41,attention_mask.43,attention_mask.45,attention_mask.47,attention_mask.49,attention_mask.51,attention_mask.53,attention_mask.55,attention_mask.57,attention_mask.59,attention_mask.61,attention_mask.63,attention_mask.65,attention_mask.67,attention_mask.69,attention_mask.7,attention_mask.71,attention_mask.73,attention_mask.75,attention_mask.9,attention_mask_1">
					<dim>-1</dim>
					<dim>1</dim>
					<dim>-1</dim>
					<dim>-1</dim>
				</port>
			</output>
		</layer>
		<layer id="270" name="__module.model.layers.0.self_attn/aten::scaled_dot_product_attention/ConvertLike" type="Const" version="opset1">
			<data element_type="f32" shape="" offset="383057941" size="4" />
			<output>
				<port id="0" precision="FP32" />
			</output>
		</layer>
		<layer id="271" name="__module.model.layers.0.self_attn/aten::scaled_dot_product_attention/ScaledDotProductAttention" type="ScaledDotProductAttention" version="opset13">
			<data causal="false" />
			<input>
				<port id="0" precision="FP32">
					<dim>-1</dim>
					<dim>32</dim>
					<dim>-1</dim>
					<dim>128</dim>
				</port>
				<port id="1" precision="FP32">
					<dim>-1</dim>
					<dim>32</dim>
					<dim>-1</dim>
					<dim>128</dim>
				</port>
				<port id="2" precision="FP32">
					<dim>-1</dim>
					<dim>32</dim>
					<dim>-1</dim>
					<dim>128</dim>
				</port>
				<port id="3" precision="FP32">
					<dim>-1</dim>
					<dim>1</dim>
					<dim>-1</dim>
					<dim>-1</dim>
				</port>
				<port id="4" precision="FP32" />
			</input>
			<output>
				<port id="5" precision="FP32" names="558,attn_output.1">
					<dim>-1</dim>
					<dim>32</dim>
					<dim>-1</dim>
					<dim>128</dim>
				</port>
			</output>
		</layer>
		<layer id="272" name="__module.model.layers.0.self_attn/aten::transpose/Constant_3" type="Const" version="opset1">
			<data element_type="i32" shape="4" offset="380333148" size="16" />
			<output>
				<port id="0" precision="I32">
					<dim>4</dim>
				</port>
			</output>
		</layer>
		<layer id="273" name="__module.model.layers.0.self_attn/aten::transpose/Transpose_3" type="Transpose" version="opset1">
			<input>
				<port id="0" precision="FP32">
					<dim>-1</dim>
					<dim>32</dim>
					<dim>-1</dim>
					<dim>128</dim>
				</port>
				<port id="1" precision="I32">
					<dim>4</dim>
				</port>
			</input>
			<output>
				<port id="2" precision="FP32" names="559">
					<dim>-1</dim>
					<dim>-1</dim>
					<dim>32</dim>
					<dim>128</dim>
				</port>
			</output>
		</layer>
		<layer id="274" name="Constant_110821" type="Const" version="opset1">
			<data element_type="i64" shape="3" offset="383057945" size="24" />
			<output>
				<port id="0" precision="I64">
					<dim>3</dim>
				</port>
			</output>
		</layer>
		<layer id="275" name="__module.model.layers.0.self_attn/aten::reshape/Reshape_2" type="Reshape" version="opset1">
			<data special_zero="true" />
			<input>
				<port id="0" precision="FP32">
					<dim>-1</dim>
					<dim>-1</dim>
					<dim>32</dim>
					<dim>128</dim>
				</port>
				<port id="1" precision="I64">
					<dim>3</dim>
				</port>
			</input>
			<output>
				<port id="2" precision="FP32" names="562">
					<dim>-1</dim>
					<dim>-1</dim>
					<dim>4096</dim>
				</port>
			</output>
		</layer>
		<layer id="276" name="self.model.layers.0.self_attn.o_proj.weight" type="Const" version="opset1">
			<data element_type="u4" shape="2560, 32, 128" offset="383057969" size="5242880" />
			<output>
				<port id="0" precision="U4">
					<dim>2560</dim>
					<dim>32</dim>
					<dim>128</dim>
				</port>
			</output>
		</layer>
		<layer id="277" name="Convert_705875" type="Convert" version="opset1">
			<data destination_type="f16" />
			<input>
				<port id="0" precision="U4">
					<dim>2560</dim>
					<dim>32</dim>
					<dim>128</dim>
				</port>
			</input>
			<output>
				<port id="1" precision="FP16">
					<dim>2560</dim>
					<dim>32</dim>
					<dim>128</dim>
				</port>
			</output>
		</layer>
		<layer id="278" name="self.model.layers.0.self_attn.o_proj.weight/zero_point" type="Const" version="opset1">
			<data element_type="u4" shape="2560, 32, 1" offset="388300849" size="40960" />
			<output>
				<port id="0" precision="U4">
					<dim>2560</dim>
					<dim>32</dim>
					<dim>1</dim>
				</port>
			</output>
		</layer>
		<layer id="279" name="Convert_705878" type="Convert" version="opset1">
			<data destination_type="f16" />
			<input>
				<port id="0" precision="U4">
					<dim>2560</dim>
					<dim>32</dim>
					<dim>1</dim>
				</port>
			</input>
			<output>
				<port id="1" precision="FP16">
					<dim>2560</dim>
					<dim>32</dim>
					<dim>1</dim>
				</port>
			</output>
		</layer>
		<layer id="280" name="self.model.layers.0.self_attn.o_proj.weight/zero_point/subtract" type="Subtract" version="opset1">
			<data auto_broadcast="numpy" />
			<input>
				<port id="0" precision="FP16">
					<dim>2560</dim>
					<dim>32</dim>
					<dim>128</dim>
				</port>
				<port id="1" precision="FP16">
					<dim>2560</dim>
					<dim>32</dim>
					<dim>1</dim>
				</port>
			</input>
			<output>
				<port id="2" precision="FP16">
					<dim>2560</dim>
					<dim>32</dim>
					<dim>128</dim>
				</port>
			</output>
		</layer>
		<layer id="281" name="self.model.layers.0.self_attn.o_proj.weight/scale" type="Const" version="opset1">
			<data element_type="f16" shape="2560, 32, 1" offset="388341809" size="163840" />
			<output>
				<port id="0" precision="FP16">
					<dim>2560</dim>
					<dim>32</dim>
					<dim>1</dim>
				</port>
			</output>
		</layer>
		<layer id="282" name="self.model.layers.0.self_attn.o_proj.weight/fq_weights_1" type="Multiply" version="opset1">
			<data auto_broadcast="numpy" />
			<input>
				<port id="0" precision="FP16">
					<dim>2560</dim>
					<dim>32</dim>
					<dim>128</dim>
				</port>
				<port id="1" precision="FP16">
					<dim>2560</dim>
					<dim>32</dim>
					<dim>1</dim>
				</port>
			</input>
			<output>
				<port id="2" precision="FP16">
					<dim>2560</dim>
					<dim>32</dim>
					<dim>128</dim>
				</port>
			</output>
		</layer>
		<layer id="283" name="Constant_705883" type="Const" version="opset1">
			<data element_type="i64" shape="2" offset="388505649" size="16" />
			<output>
				<port id="0" precision="I64">
					<dim>2</dim>
				</port>
			</output>
		</layer>
		<layer id="284" name="Reshape_705884" type="Reshape" version="opset1">
			<data special_zero="false" />
			<input>
				<port id="0" precision="FP16">
					<dim>2560</dim>
					<dim>32</dim>
					<dim>128</dim>
				</port>
				<port id="1" precision="I64">
					<dim>2</dim>
				</port>
			</input>
			<output>
				<port id="2" precision="FP16">
					<dim>2560</dim>
					<dim>4096</dim>
				</port>
			</output>
		</layer>
		<layer id="285" name="__module.model.layers.0.self_attn.o_proj/ov_ext::linear/Convert" type="Convert" version="opset1">
			<data destination_type="f32" />
			<rt_info>
				<attribute name="decompression" version="0" />
			</rt_info>
			<input>
				<port id="0" precision="FP16">
					<dim>2560</dim>
					<dim>4096</dim>
				</port>
			</input>
			<output>
				<port id="1" precision="FP32">
					<dim>2560</dim>
					<dim>4096</dim>
				</port>
			</output>
		</layer>
		<layer id="286" name="__module.model.layers.0.self_attn.o_proj/ov_ext::linear/MatMul" type="MatMul" version="opset1">
			<data transpose_a="false" transpose_b="true" />
			<input>
				<port id="0" precision="FP32">
					<dim>-1</dim>
					<dim>-1</dim>
					<dim>4096</dim>
				</port>
				<port id="1" precision="FP32">
					<dim>2560</dim>
					<dim>4096</dim>
				</port>
			</input>
			<output>
				<port id="2" precision="FP32" names="565,hidden_states.33">
					<dim>-1</dim>
					<dim>-1</dim>
					<dim>2560</dim>
				</port>
			</output>
		</layer>
		<layer id="287" name="__module.model.layers.0/aten::add/Add" type="Add" version="opset1">
			<data auto_broadcast="numpy" />
			<input>
				<port id="0" precision="FP32">
					<dim>-1</dim>
					<dim>-1</dim>
					<dim>2560</dim>
				</port>
				<port id="1" precision="FP32">
					<dim>-1</dim>
					<dim>-1</dim>
					<dim>2560</dim>
				</port>
			</input>
			<output>
				<port id="2" precision="FP32" names="570,572,hidden_states.35,hidden_states.37">
					<dim>-1</dim>
					<dim>-1</dim>
					<dim>2560</dim>
				</port>
			</output>
		</layer>
		<layer id="288" name="Constant_99688" type="Const" version="opset1">
			<data element_type="f32" shape="1, 1, 2560" offset="388505665" size="10240" />
			<output>
				<port id="0" precision="FP32">
					<dim>1</dim>
					<dim>1</dim>
					<dim>2560</dim>
				</port>
			</output>
		</layer>
		<layer id="289" name="Constant_99687" type="Const" version="opset1">
			<data element_type="f32" shape="1, 1, 1" offset="374885400" size="4" />
			<output>
				<port id="0" precision="FP32">
					<dim>1</dim>
					<dim>1</dim>
					<dim>1</dim>
				</port>
			</output>
		</layer>
		<layer id="290" name="Constant_99685" type="Const" version="opset1">
			<data element_type="f32" shape="1, 1, 1" offset="374885404" size="4" />
			<output>
				<port id="0" precision="FP32">
					<dim>1</dim>
					<dim>1</dim>
					<dim>1</dim>
				</port>
			</output>
		</layer>
		<layer id="291" name="__module.model.layers.0.post_attention_layernorm/aten::pow/Power" type="Power" version="opset1">
			<data auto_broadcast="numpy" />
			<input>
				<port id="0" precision="FP32">
					<dim>-1</dim>
					<dim>-1</dim>
					<dim>2560</dim>
				</port>
				<port id="1" precision="FP32">
					<dim>1</dim>
					<dim>1</dim>
					<dim>1</dim>
				</port>
			</input>
			<output>
				<port id="2" precision="FP32" names="573">
					<dim>-1</dim>
					<dim>-1</dim>
					<dim>2560</dim>
				</port>
			</output>
		</layer>
		<layer id="292" name="Constant_1556" type="Const" version="opset1">
			<data element_type="i64" shape="1" offset="374885408" size="8" />
			<output>
				<port id="0" precision="I64">
					<dim>1</dim>
				</port>
			</output>
		</layer>
		<layer id="293" name="__module.model.layers.0.post_attention_layernorm/aten::mean/ReduceMean" type="ReduceMean" version="opset1">
			<data keep_dims="true" />
			<input>
				<port id="0" precision="FP32">
					<dim>-1</dim>
					<dim>-1</dim>
					<dim>2560</dim>
				</port>
				<port id="1" precision="I64">
					<dim>1</dim>
				</port>
			</input>
			<output>
				<port id="2" precision="FP32" names="575,variance.7">
					<dim>-1</dim>
					<dim>-1</dim>
					<dim>1</dim>
				</port>
			</output>
		</layer>
		<layer id="294" name="Constant_99686" type="Const" version="opset1">
			<data element_type="f32" shape="1, 1, 1" offset="374885416" size="4" />
			<output>
				<port id="0" precision="FP32">
					<dim>1</dim>
					<dim>1</dim>
					<dim>1</dim>
				</port>
			</output>
		</layer>
		<layer id="295" name="__module.model.layers.0.post_attention_layernorm/aten::add/Add" type="Add" version="opset1">
			<data auto_broadcast="numpy" />
			<input>
				<port id="0" precision="FP32">
					<dim>-1</dim>
					<dim>-1</dim>
					<dim>1</dim>
				</port>
				<port id="1" precision="FP32">
					<dim>1</dim>
					<dim>1</dim>
					<dim>1</dim>
				</port>
			</input>
			<output>
				<port id="2" precision="FP32" names="576">
					<dim>-1</dim>
					<dim>-1</dim>
					<dim>1</dim>
				</port>
			</output>
		</layer>
		<layer id="296" name="__module.model.layers.0.post_attention_layernorm/aten::rsqrt/Sqrt" type="Sqrt" version="opset1">
			<input>
				<port id="0" precision="FP32">
					<dim>-1</dim>
					<dim>-1</dim>
					<dim>1</dim>
				</port>
			</input>
			<output>
				<port id="1" precision="FP32">
					<dim>-1</dim>
					<dim>-1</dim>
					<dim>1</dim>
				</port>
			</output>
		</layer>
		<layer id="297" name="__module.model.layers.0.post_attention_layernorm/aten::rsqrt/Divide" type="Divide" version="opset1">
			<data auto_broadcast="numpy" m_pythondiv="true" />
			<input>
				<port id="0" precision="FP32">
					<dim>1</dim>
					<dim>1</dim>
					<dim>1</dim>
				</port>
				<port id="1" precision="FP32">
					<dim>-1</dim>
					<dim>-1</dim>
					<dim>1</dim>
				</port>
			</input>
			<output>
				<port id="2" precision="FP32" names="577">
					<dim>-1</dim>
					<dim>-1</dim>
					<dim>1</dim>
				</port>
			</output>
		</layer>
		<layer id="298" name="__module.model.layers.0.post_attention_layernorm/aten::mul/Multiply" type="Multiply" version="opset1">
			<data auto_broadcast="numpy" />
			<input>
				<port id="0" precision="FP32">
					<dim>-1</dim>
					<dim>-1</dim>
					<dim>2560</dim>
				</port>
				<port id="1" precision="FP32">
					<dim>-1</dim>
					<dim>-1</dim>
					<dim>1</dim>
				</port>
			</input>
			<output>
				<port id="2" precision="FP32" names="578,579,hidden_states.39,hidden_states.41">
					<dim>-1</dim>
					<dim>-1</dim>
					<dim>2560</dim>
				</port>
			</output>
		</layer>
		<layer id="299" name="__module.model.layers.0.post_attention_layernorm/aten::mul/Multiply_1" type="Multiply" version="opset1">
			<data auto_broadcast="numpy" />
			<input>
				<port id="0" precision="FP32">
					<dim>1</dim>
					<dim>1</dim>
					<dim>2560</dim>
				</port>
				<port id="1" precision="FP32">
					<dim>-1</dim>
					<dim>-1</dim>
					<dim>2560</dim>
				</port>
			</input>
			<output>
				<port id="2" precision="FP32" names="580">
					<dim>-1</dim>
					<dim>-1</dim>
					<dim>2560</dim>
				</port>
			</output>
		</layer>
		<layer id="300" name="self.model.layers.0.mlp.gate_proj.weight" type="Const" version="opset1">
			<data element_type="u4" shape="9728, 20, 128" offset="388515905" size="12451840" />
			<output>
				<port id="0" precision="U4">
					<dim>9728</dim>
					<dim>20</dim>
					<dim>128</dim>
				</port>
			</output>
		</layer>
		<layer id="301" name="Convert_150755" type="Convert" version="opset1">
			<data destination_type="f16" />
			<input>
				<port id="0" precision="U4">
					<dim>9728</dim>
					<dim>20</dim>
					<dim>128</dim>
				</port>
			</input>
			<output>
				<port id="1" precision="FP16">
					<dim>9728</dim>
					<dim>20</dim>
					<dim>128</dim>
				</port>
			</output>
		</layer>
		<layer id="302" name="self.model.layers.0.mlp.gate_proj.weight/zero_point" type="Const" version="opset1">
			<data element_type="u4" shape="9728, 20, 1" offset="400967745" size="97280" />
			<output>
				<port id="0" precision="U4">
					<dim>9728</dim>
					<dim>20</dim>
					<dim>1</dim>
				</port>
			</output>
		</layer>
		<layer id="303" name="Convert_150758" type="Convert" version="opset1">
			<data destination_type="f16" />
			<input>
				<port id="0" precision="U4">
					<dim>9728</dim>
					<dim>20</dim>
					<dim>1</dim>
				</port>
			</input>
			<output>
				<port id="1" precision="FP16">
					<dim>9728</dim>
					<dim>20</dim>
					<dim>1</dim>
				</port>
			</output>
		</layer>
		<layer id="304" name="self.model.layers.0.mlp.gate_proj.weight/zero_point/subtract" type="Subtract" version="opset1">
			<data auto_broadcast="numpy" />
			<input>
				<port id="0" precision="FP16">
					<dim>9728</dim>
					<dim>20</dim>
					<dim>128</dim>
				</port>
				<port id="1" precision="FP16">
					<dim>9728</dim>
					<dim>20</dim>
					<dim>1</dim>
				</port>
			</input>
			<output>
				<port id="2" precision="FP16">
					<dim>9728</dim>
					<dim>20</dim>
					<dim>128</dim>
				</port>
			</output>
		</layer>
		<layer id="305" name="self.model.layers.0.mlp.gate_proj.weight/scale" type="Const" version="opset1">
			<data element_type="f16" shape="9728, 20, 1" offset="401065025" size="389120" />
			<output>
				<port id="0" precision="FP16">
					<dim>9728</dim>
					<dim>20</dim>
					<dim>1</dim>
				</port>
			</output>
		</layer>
		<layer id="306" name="self.model.layers.0.mlp.gate_proj.weight/fq_weights_1" type="Multiply" version="opset1">
			<data auto_broadcast="numpy" />
			<input>
				<port id="0" precision="FP16">
					<dim>9728</dim>
					<dim>20</dim>
					<dim>128</dim>
				</port>
				<port id="1" precision="FP16">
					<dim>9728</dim>
					<dim>20</dim>
					<dim>1</dim>
				</port>
			</input>
			<output>
				<port id="2" precision="FP16">
					<dim>9728</dim>
					<dim>20</dim>
					<dim>128</dim>
				</port>
			</output>
		</layer>
		<layer id="307" name="Constant_150763" type="Const" version="opset1">
			<data element_type="i64" shape="2" offset="401454145" size="16" />
			<output>
				<port id="0" precision="I64">
					<dim>2</dim>
				</port>
			</output>
		</layer>
		<layer id="308" name="Reshape_150764" type="Reshape" version="opset1">
			<data special_zero="false" />
			<input>
				<port id="0" precision="FP16">
					<dim>9728</dim>
					<dim>20</dim>
					<dim>128</dim>
				</port>
				<port id="1" precision="I64">
					<dim>2</dim>
				</port>
			</input>
			<output>
				<port id="2" precision="FP16">
					<dim>9728</dim>
					<dim>2560</dim>
				</port>
			</output>
		</layer>
		<layer id="309" name="__module.model.layers.0.mlp.gate_proj/ov_ext::linear/Convert" type="Convert" version="opset1">
			<data destination_type="f32" />
			<rt_info>
				<attribute name="decompression" version="0" />
			</rt_info>
			<input>
				<port id="0" precision="FP16">
					<dim>9728</dim>
					<dim>2560</dim>
				</port>
			</input>
			<output>
				<port id="1" precision="FP32">
					<dim>9728</dim>
					<dim>2560</dim>
				</port>
			</output>
		</layer>
		<layer id="310" name="__module.model.layers.0.mlp.gate_proj/ov_ext::linear/MatMul" type="MatMul" version="opset1">
			<data transpose_a="false" transpose_b="true" />
			<input>
				<port id="0" precision="FP32">
					<dim>-1</dim>
					<dim>-1</dim>
					<dim>2560</dim>
				</port>
				<port id="1" precision="FP32">
					<dim>9728</dim>
					<dim>2560</dim>
				</port>
			</input>
			<output>
				<port id="2" precision="FP32" names="588,input.1">
					<dim>-1</dim>
					<dim>-1</dim>
					<dim>9728</dim>
				</port>
			</output>
		</layer>
		<layer id="311" name="__module.model.layers.0.mlp.act_fn/aten::silu/Swish" type="Swish" version="opset4">
			<input>
				<port id="0" precision="FP32">
					<dim>-1</dim>
					<dim>-1</dim>
					<dim>9728</dim>
				</port>
			</input>
			<output>
				<port id="1" precision="FP32" names="589">
					<dim>-1</dim>
					<dim>-1</dim>
					<dim>9728</dim>
				</port>
			</output>
		</layer>
		<layer id="312" name="self.model.layers.0.mlp.up_proj.weight" type="Const" version="opset1">
			<data element_type="u4" shape="9728, 20, 128" offset="401454161" size="12451840" />
			<output>
				<port id="0" precision="U4">
					<dim>9728</dim>
					<dim>20</dim>
					<dim>128</dim>
				</port>
			</output>
		</layer>
		<layer id="313" name="Convert_145615" type="Convert" version="opset1">
			<data destination_type="f16" />
			<input>
				<port id="0" precision="U4">
					<dim>9728</dim>
					<dim>20</dim>
					<dim>128</dim>
				</port>
			</input>
			<output>
				<port id="1" precision="FP16">
					<dim>9728</dim>
					<dim>20</dim>
					<dim>128</dim>
				</port>
			</output>
		</layer>
		<layer id="314" name="self.model.layers.0.mlp.up_proj.weight/zero_point" type="Const" version="opset1">
			<data element_type="u4" shape="9728, 20, 1" offset="413906001" size="97280" />
			<output>
				<port id="0" precision="U4">
					<dim>9728</dim>
					<dim>20</dim>
					<dim>1</dim>
				</port>
			</output>
		</layer>
		<layer id="315" name="Convert_145618" type="Convert" version="opset1">
			<data destination_type="f16" />
			<input>
				<port id="0" precision="U4">
					<dim>9728</dim>
					<dim>20</dim>
					<dim>1</dim>
				</port>
			</input>
			<output>
				<port id="1" precision="FP16">
					<dim>9728</dim>
					<dim>20</dim>
					<dim>1</dim>
				</port>
			</output>
		</layer>
		<layer id="316" name="self.model.layers.0.mlp.up_proj.weight/zero_point/subtract" type="Subtract" version="opset1">
			<data auto_broadcast="numpy" />
			<input>
				<port id="0" precision="FP16">
					<dim>9728</dim>
					<dim>20</dim>
					<dim>128</dim>
				</port>
				<port id="1" precision="FP16">
					<dim>9728</dim>
					<dim>20</dim>
					<dim>1</dim>
				</port>
			</input>
			<output>
				<port id="2" precision="FP16">
					<dim>9728</dim>
					<dim>20</dim>
					<dim>128</dim>
				</port>
			</output>
		</layer>
		<layer id="317" name="self.model.layers.0.mlp.up_proj.weight/scale" type="Const" version="opset1">
			<data element_type="f16" shape="9728, 20, 1" offset="414003281" size="389120" />
			<output>
				<port id="0" precision="FP16">
					<dim>9728</dim>
					<dim>20</dim>
					<dim>1</dim>
				</port>
			</output>
		</layer>
		<layer id="318" name="self.model.layers.0.mlp.up_proj.weight/fq_weights_1" type="Multiply" version="opset1">
			<data auto_broadcast="numpy" />
			<input>
				<port id="0" precision="FP16">
					<dim>9728</dim>
					<dim>20</dim>
					<dim>128</dim>
				</port>
				<port id="1" precision="FP16">
					<dim>9728</dim>
					<dim>20</dim>
					<dim>1</dim>
				</port>
			</input>
			<output>
				<port id="2" precision="FP16">
					<dim>9728</dim>
					<dim>20</dim>
					<dim>128</dim>
				</port>
			</output>
		</layer>
		<layer id="319" name="Constant_145623" type="Const" version="opset1">
			<data element_type="i64" shape="2" offset="401454145" size="16" />
			<output>
				<port id="0" precision="I64">
					<dim>2</dim>
				</port>
			</output>
		</layer>
		<layer id="320" name="Reshape_145624" type="Reshape" version="opset1">
			<data special_zero="false" />
			<input>
				<port id="0" precision="FP16">
					<dim>9728</dim>
					<dim>20</dim>
					<dim>128</dim>
				</port>
				<port id="1" precision="I64">
					<dim>2</dim>
				</port>
			</input>
			<output>
				<port id="2" precision="FP16">
					<dim>9728</dim>
					<dim>2560</dim>
				</port>
			</output>
		</layer>
		<layer id="321" name="__module.model.layers.0.mlp.up_proj/ov_ext::linear/Convert" type="Convert" version="opset1">
			<data destination_type="f32" />
			<rt_info>
				<attribute name="decompression" version="0" />
			</rt_info>
			<input>
				<port id="0" precision="FP16">
					<dim>9728</dim>
					<dim>2560</dim>
				</port>
			</input>
			<output>
				<port id="1" precision="FP32">
					<dim>9728</dim>
					<dim>2560</dim>
				</port>
			</output>
		</layer>
		<layer id="322" name="__module.model.layers.0.mlp.up_proj/ov_ext::linear/MatMul" type="MatMul" version="opset1">
			<data transpose_a="false" transpose_b="true" />
			<input>
				<port id="0" precision="FP32">
					<dim>-1</dim>
					<dim>-1</dim>
					<dim>2560</dim>
				</port>
				<port id="1" precision="FP32">
					<dim>9728</dim>
					<dim>2560</dim>
				</port>
			</input>
			<output>
				<port id="2" precision="FP32" names="591">
					<dim>-1</dim>
					<dim>-1</dim>
					<dim>9728</dim>
				</port>
			</output>
		</layer>
		<layer id="323" name="__module.model.layers.0.mlp/aten::mul/Multiply" type="Multiply" version="opset1">
			<data auto_broadcast="numpy" />
			<input>
				<port id="0" precision="FP32">
					<dim>-1</dim>
					<dim>-1</dim>
					<dim>9728</dim>
				</port>
				<port id="1" precision="FP32">
					<dim>-1</dim>
					<dim>-1</dim>
					<dim>9728</dim>
				</port>
			</input>
			<output>
				<port id="2" precision="FP32" names="592">
					<dim>-1</dim>
					<dim>-1</dim>
					<dim>9728</dim>
				</port>
			</output>
		</layer>
		<layer id="324" name="self.model.layers.0.mlp.down_proj.weight" type="Const" version="opset1">
			<data element_type="u4" shape="2560, 76, 128" offset="414392401" size="12451840" />
			<output>
				<port id="0" precision="U4">
					<dim>2560</dim>
					<dim>76</dim>
					<dim>128</dim>
				</port>
			</output>
		</layer>
		<layer id="325" name="Convert_155895" type="Convert" version="opset1">
			<data destination_type="f16" />
			<input>
				<port id="0" precision="U4">
					<dim>2560</dim>
					<dim>76</dim>
					<dim>128</dim>
				</port>
			</input>
			<output>
				<port id="1" precision="FP16">
					<dim>2560</dim>
					<dim>76</dim>
					<dim>128</dim>
				</port>
			</output>
		</layer>
		<layer id="326" name="self.model.layers.0.mlp.down_proj.weight/zero_point" type="Const" version="opset1">
			<data element_type="u4" shape="2560, 76, 1" offset="426844241" size="97280" />
			<output>
				<port id="0" precision="U4">
					<dim>2560</dim>
					<dim>76</dim>
					<dim>1</dim>
				</port>
			</output>
		</layer>
		<layer id="327" name="Convert_155898" type="Convert" version="opset1">
			<data destination_type="f16" />
			<input>
				<port id="0" precision="U4">
					<dim>2560</dim>
					<dim>76</dim>
					<dim>1</dim>
				</port>
			</input>
			<output>
				<port id="1" precision="FP16">
					<dim>2560</dim>
					<dim>76</dim>
					<dim>1</dim>
				</port>
			</output>
		</layer>
		<layer id="328" name="self.model.layers.0.mlp.down_proj.weight/zero_point/subtract" type="Subtract" version="opset1">
			<data auto_broadcast="numpy" />
			<input>
				<port id="0" precision="FP16">
					<dim>2560</dim>
					<dim>76</dim>
					<dim>128</dim>
				</port>
				<port id="1" precision="FP16">
					<dim>2560</dim>
					<dim>76</dim>
					<dim>1</dim>
				</port>
			</input>
			<output>
				<port id="2" precision="FP16">
					<dim>2560</dim>
					<dim>76</dim>
					<dim>128</dim>
				</port>
			</output>
		</layer>
		<layer id="329" name="self.model.layers.0.mlp.down_proj.weight/scale" type="Const" version="opset1">
			<data element_type="f16" shape="2560, 76, 1" offset="426941521" size="389120" />
			<output>
				<port id="0" precision="FP16">
					<dim>2560</dim>
					<dim>76</dim>
					<dim>1</dim>
				</port>
			</output>
		</layer>
		<layer id="330" name="self.model.layers.0.mlp.down_proj.weight/fq_weights_1" type="Multiply" version="opset1">
			<data auto_broadcast="numpy" />
			<input>
				<port id="0" precision="FP16">
					<dim>2560</dim>
					<dim>76</dim>
					<dim>128</dim>
				</port>
				<port id="1" precision="FP16">
					<dim>2560</dim>
					<dim>76</dim>
					<dim>1</dim>
				</port>
			</input>
			<output>
				<port id="2" precision="FP16">
					<dim>2560</dim>
					<dim>76</dim>
					<dim>128</dim>
				</port>
			</output>
		</layer>
		<layer id="331" name="Constant_155903" type="Const" version="opset1">
			<data element_type="i64" shape="2" offset="427330641" size="16" />
			<output>
				<port id="0" precision="I64">
					<dim>2</dim>
				</port>
			</output>
		</layer>
		<layer id="332" name="Reshape_155904" type="Reshape" version="opset1">
			<data special_zero="false" />
			<input>
				<port id="0" precision="FP16">
					<dim>2560</dim>
					<dim>76</dim>
					<dim>128</dim>
				</port>
				<port id="1" precision="I64">
					<dim>2</dim>
				</port>
			</input>
			<output>
				<port id="2" precision="FP16">
					<dim>2560</dim>
					<dim>9728</dim>
				</port>
			</output>
		</layer>
		<layer id="333" name="__module.model.layers.0.mlp.down_proj/ov_ext::linear/Convert" type="Convert" version="opset1">
			<data destination_type="f32" />
			<rt_info>
				<attribute name="decompression" version="0" />
			</rt_info>
			<input>
				<port id="0" precision="FP16">
					<dim>2560</dim>
					<dim>9728</dim>
				</port>
			</input>
			<output>
				<port id="1" precision="FP32">
					<dim>2560</dim>
					<dim>9728</dim>
				</port>
			</output>
		</layer>
		<layer id="334" name="__module.model.layers.0.mlp.down_proj/ov_ext::linear/MatMul" type="MatMul" version="opset1">
			<data transpose_a="false" transpose_b="true" />
			<input>
				<port id="0" precision="FP32">
					<dim>-1</dim>
					<dim>-1</dim>
					<dim>9728</dim>
				</port>
				<port id="1" precision="FP32">
					<dim>2560</dim>
					<dim>9728</dim>
				</port>
			</input>
			<output>
				<port id="2" precision="FP32" names="594,hidden_states.43">
					<dim>-1</dim>
					<dim>-1</dim>
					<dim>2560</dim>
				</port>
			</output>
		</layer>
		<layer id="335" name="__module.model.layers.0/aten::add/Add_1" type="Add" version="opset1">
			<data auto_broadcast="numpy" />
			<input>
				<port id="0" precision="FP32">
					<dim>-1</dim>
					<dim>-1</dim>
					<dim>2560</dim>
				</port>
				<port id="1" precision="FP32">
					<dim>-1</dim>
					<dim>-1</dim>
					<dim>2560</dim>
				</port>
			</input>
			<output>
				<port id="2" precision="FP32" names="595,605,hidden_states.45,hidden_states.47">
					<dim>-1</dim>
					<dim>-1</dim>
					<dim>2560</dim>
				</port>
			</output>
		</layer>
		<layer id="336" name="Constant_99696" type="Const" version="opset1">
			<data element_type="f32" shape="1, 1, 1, 128" offset="427330657" size="512" />
			<output>
				<port id="0" precision="FP32">
					<dim>1</dim>
					<dim>1</dim>
					<dim>1</dim>
					<dim>128</dim>
				</port>
			</output>
		</layer>
		<layer id="337" name="Constant_99692" type="Const" version="opset1">
			<data element_type="f32" shape="1, 1, 2560" offset="427331169" size="10240" />
			<output>
				<port id="0" precision="FP32">
					<dim>1</dim>
					<dim>1</dim>
					<dim>2560</dim>
				</port>
			</output>
		</layer>
		<layer id="338" name="Constant_99691" type="Const" version="opset1">
			<data element_type="f32" shape="1, 1, 1" offset="374885400" size="4" />
			<output>
				<port id="0" precision="FP32">
					<dim>1</dim>
					<dim>1</dim>
					<dim>1</dim>
				</port>
			</output>
		</layer>
		<layer id="339" name="Constant_99689" type="Const" version="opset1">
			<data element_type="f32" shape="1, 1, 1" offset="374885404" size="4" />
			<output>
				<port id="0" precision="FP32">
					<dim>1</dim>
					<dim>1</dim>
					<dim>1</dim>
				</port>
			</output>
		</layer>
		<layer id="340" name="__module.model.layers.1.input_layernorm/aten::pow/Power" type="Power" version="opset1">
			<data auto_broadcast="numpy" />
			<input>
				<port id="0" precision="FP32">
					<dim>-1</dim>
					<dim>-1</dim>
					<dim>2560</dim>
				</port>
				<port id="1" precision="FP32">
					<dim>1</dim>
					<dim>1</dim>
					<dim>1</dim>
				</port>
			</input>
			<output>
				<port id="2" precision="FP32" names="606">
					<dim>-1</dim>
					<dim>-1</dim>
					<dim>2560</dim>
				</port>
			</output>
		</layer>
		<layer id="341" name="Constant_1640" type="Const" version="opset1">
			<data element_type="i64" shape="1" offset="374885408" size="8" />
			<output>
				<port id="0" precision="I64">
					<dim>1</dim>
				</port>
			</output>
		</layer>
		<layer id="342" name="__module.model.layers.1.input_layernorm/aten::mean/ReduceMean" type="ReduceMean" version="opset1">
			<data keep_dims="true" />
			<input>
				<port id="0" precision="FP32">
					<dim>-1</dim>
					<dim>-1</dim>
					<dim>2560</dim>
				</port>
				<port id="1" precision="I64">
					<dim>1</dim>
				</port>
			</input>
			<output>
				<port id="2" precision="FP32" names="608,variance.9">
					<dim>-1</dim>
					<dim>-1</dim>
					<dim>1</dim>
				</port>
			</output>
		</layer>
		<layer id="343" name="Constant_99690" type="Const" version="opset1">
			<data element_type="f32" shape="1, 1, 1" offset="374885416" size="4" />
			<output>
				<port id="0" precision="FP32">
					<dim>1</dim>
					<dim>1</dim>
					<dim>1</dim>
				</port>
			</output>
		</layer>
		<layer id="344" name="__module.model.layers.1.input_layernorm/aten::add/Add" type="Add" version="opset1">
			<data auto_broadcast="numpy" />
			<input>
				<port id="0" precision="FP32">
					<dim>-1</dim>
					<dim>-1</dim>
					<dim>1</dim>
				</port>
				<port id="1" precision="FP32">
					<dim>1</dim>
					<dim>1</dim>
					<dim>1</dim>
				</port>
			</input>
			<output>
				<port id="2" precision="FP32" names="609">
					<dim>-1</dim>
					<dim>-1</dim>
					<dim>1</dim>
				</port>
			</output>
		</layer>
		<layer id="345" name="__module.model.layers.1.input_layernorm/aten::rsqrt/Sqrt" type="Sqrt" version="opset1">
			<input>
				<port id="0" precision="FP32">
					<dim>-1</dim>
					<dim>-1</dim>
					<dim>1</dim>
				</port>
			</input>
			<output>
				<port id="1" precision="FP32">
					<dim>-1</dim>
					<dim>-1</dim>
					<dim>1</dim>
				</port>
			</output>
		</layer>
		<layer id="346" name="__module.model.layers.1.input_layernorm/aten::rsqrt/Divide" type="Divide" version="opset1">
			<data auto_broadcast="numpy" m_pythondiv="true" />
			<input>
				<port id="0" precision="FP32">
					<dim>1</dim>
					<dim>1</dim>
					<dim>1</dim>
				</port>
				<port id="1" precision="FP32">
					<dim>-1</dim>
					<dim>-1</dim>
					<dim>1</dim>
				</port>
			</input>
			<output>
				<port id="2" precision="FP32" names="610">
					<dim>-1</dim>
					<dim>-1</dim>
					<dim>1</dim>
				</port>
			</output>
		</layer>
		<layer id="347" name="__module.model.layers.1.input_layernorm/aten::mul/Multiply" type="Multiply" version="opset1">
			<data auto_broadcast="numpy" />
			<input>
				<port id="0" precision="FP32">
					<dim>-1</dim>
					<dim>-1</dim>
					<dim>2560</dim>
				</port>
				<port id="1" precision="FP32">
					<dim>-1</dim>
					<dim>-1</dim>
					<dim>1</dim>
				</port>
			</input>
			<output>
				<port id="2" precision="FP32" names="611,612,hidden_states.49,hidden_states.51">
					<dim>-1</dim>
					<dim>-1</dim>
					<dim>2560</dim>
				</port>
			</output>
		</layer>
		<layer id="348" name="__module.model.layers.1.input_layernorm/aten::mul/Multiply_1" type="Multiply" version="opset1">
			<data auto_broadcast="numpy" />
			<input>
				<port id="0" precision="FP32">
					<dim>1</dim>
					<dim>1</dim>
					<dim>2560</dim>
				</port>
				<port id="1" precision="FP32">
					<dim>-1</dim>
					<dim>-1</dim>
					<dim>2560</dim>
				</port>
			</input>
			<output>
				<port id="2" precision="FP32" names="613,hidden_states.53">
					<dim>-1</dim>
					<dim>-1</dim>
					<dim>2560</dim>
				</port>
			</output>
		</layer>
		<layer id="349" name="self.model.layers.1.self_attn.q_proj.weight" type="Const" version="opset1">
			<data element_type="u4" shape="4096, 20, 128" offset="427341409" size="5242880" />
			<output>
				<port id="0" precision="U4">
					<dim>4096</dim>
					<dim>20</dim>
					<dim>128</dim>
				</port>
			</output>
		</layer>
		<layer id="350" name="Convert_711015" type="Convert" version="opset1">
			<data destination_type="f16" />
			<input>
				<port id="0" precision="U4">
					<dim>4096</dim>
					<dim>20</dim>
					<dim>128</dim>
				</port>
			</input>
			<output>
				<port id="1" precision="FP16">
					<dim>4096</dim>
					<dim>20</dim>
					<dim>128</dim>
				</port>
			</output>
		</layer>
		<layer id="351" name="self.model.layers.1.self_attn.q_proj.weight/zero_point" type="Const" version="opset1">
			<data element_type="u4" shape="4096, 20, 1" offset="432584289" size="40960" />
			<output>
				<port id="0" precision="U4">
					<dim>4096</dim>
					<dim>20</dim>
					<dim>1</dim>
				</port>
			</output>
		</layer>
		<layer id="352" name="Convert_711018" type="Convert" version="opset1">
			<data destination_type="f16" />
			<input>
				<port id="0" precision="U4">
					<dim>4096</dim>
					<dim>20</dim>
					<dim>1</dim>
				</port>
			</input>
			<output>
				<port id="1" precision="FP16">
					<dim>4096</dim>
					<dim>20</dim>
					<dim>1</dim>
				</port>
			</output>
		</layer>
		<layer id="353" name="self.model.layers.1.self_attn.q_proj.weight/zero_point/subtract" type="Subtract" version="opset1">
			<data auto_broadcast="numpy" />
			<input>
				<port id="0" precision="FP16">
					<dim>4096</dim>
					<dim>20</dim>
					<dim>128</dim>
				</port>
				<port id="1" precision="FP16">
					<dim>4096</dim>
					<dim>20</dim>
					<dim>1</dim>
				</port>
			</input>
			<output>
				<port id="2" precision="FP16">
					<dim>4096</dim>
					<dim>20</dim>
					<dim>128</dim>
				</port>
			</output>
		</layer>
		<layer id="354" name="self.model.layers.1.self_attn.q_proj.weight/scale" type="Const" version="opset1">
			<data element_type="f16" shape="4096, 20, 1" offset="432625249" size="163840" />
			<output>
				<port id="0" precision="FP16">
					<dim>4096</dim>
					<dim>20</dim>
					<dim>1</dim>
				</port>
			</output>
		</layer>
		<layer id="355" name="self.model.layers.1.self_attn.q_proj.weight/fq_weights_1" type="Multiply" version="opset1">
			<data auto_broadcast="numpy" />
			<input>
				<port id="0" precision="FP16">
					<dim>4096</dim>
					<dim>20</dim>
					<dim>128</dim>
				</port>
				<port id="1" precision="FP16">
					<dim>4096</dim>
					<dim>20</dim>
					<dim>1</dim>
				</port>
			</input>
			<output>
				<port id="2" precision="FP16">
					<dim>4096</dim>
					<dim>20</dim>
					<dim>128</dim>
				</port>
			</output>
		</layer>
		<layer id="356" name="Constant_711023" type="Const" version="opset1">
			<data element_type="i64" shape="2" offset="380333100" size="16" />
			<output>
				<port id="0" precision="I64">
					<dim>2</dim>
				</port>
			</output>
		</layer>
		<layer id="357" name="Reshape_711024" type="Reshape" version="opset1">
			<data special_zero="false" />
			<input>
				<port id="0" precision="FP16">
					<dim>4096</dim>
					<dim>20</dim>
					<dim>128</dim>
				</port>
				<port id="1" precision="I64">
					<dim>2</dim>
				</port>
			</input>
			<output>
				<port id="2" precision="FP16">
					<dim>4096</dim>
					<dim>2560</dim>
				</port>
			</output>
		</layer>
		<layer id="358" name="__module.model.layers.1.self_attn.q_proj/ov_ext::linear/Convert" type="Convert" version="opset1">
			<data destination_type="f32" />
			<rt_info>
				<attribute name="decompression" version="0" />
			</rt_info>
			<input>
				<port id="0" precision="FP16">
					<dim>4096</dim>
					<dim>2560</dim>
				</port>
			</input>
			<output>
				<port id="1" precision="FP32">
					<dim>4096</dim>
					<dim>2560</dim>
				</port>
			</output>
		</layer>
		<layer id="359" name="__module.model.layers.1.self_attn.q_proj/ov_ext::linear/MatMul" type="MatMul" version="opset1">
			<data transpose_a="false" transpose_b="true" />
			<input>
				<port id="0" precision="FP32">
					<dim>-1</dim>
					<dim>-1</dim>
					<dim>2560</dim>
				</port>
				<port id="1" precision="FP32">
					<dim>4096</dim>
					<dim>2560</dim>
				</port>
			</input>
			<output>
				<port id="2" precision="FP32" names="626">
					<dim>-1</dim>
					<dim>-1</dim>
					<dim>4096</dim>
				</port>
			</output>
		</layer>
		<layer id="360" name="Constant_110822" type="Const" version="opset1">
			<data element_type="i64" shape="4" offset="380333116" size="32" />
			<output>
				<port id="0" precision="I64">
					<dim>4</dim>
				</port>
			</output>
		</layer>
		<layer id="361" name="__module.model.layers.1.self_attn/aten::view/Reshape" type="Reshape" version="opset1">
			<data special_zero="true" />
			<input>
				<port id="0" precision="FP32">
					<dim>-1</dim>
					<dim>-1</dim>
					<dim>4096</dim>
				</port>
				<port id="1" precision="I64">
					<dim>4</dim>
				</port>
			</input>
			<output>
				<port id="2" precision="FP32" names="628,630,hidden_states.55,hidden_states.57">
					<dim>-1</dim>
					<dim>-1</dim>
					<dim>32</dim>
					<dim>128</dim>
				</port>
			</output>
		</layer>
		<layer id="362" name="Constant_99695" type="Const" version="opset1">
			<data element_type="f32" shape="1, 1, 1, 1" offset="374885400" size="4" />
			<output>
				<port id="0" precision="FP32">
					<dim>1</dim>
					<dim>1</dim>
					<dim>1</dim>
					<dim>1</dim>
				</port>
			</output>
		</layer>
		<layer id="363" name="Constant_99693" type="Const" version="opset1">
			<data element_type="f32" shape="1, 1, 1, 1" offset="374885404" size="4" />
			<output>
				<port id="0" precision="FP32">
					<dim>1</dim>
					<dim>1</dim>
					<dim>1</dim>
					<dim>1</dim>
				</port>
			</output>
		</layer>
		<layer id="364" name="__module.model.layers.1.self_attn.q_norm/aten::pow/Power" type="Power" version="opset1">
			<data auto_broadcast="numpy" />
			<input>
				<port id="0" precision="FP32">
					<dim>-1</dim>
					<dim>-1</dim>
					<dim>32</dim>
					<dim>128</dim>
				</port>
				<port id="1" precision="FP32">
					<dim>1</dim>
					<dim>1</dim>
					<dim>1</dim>
					<dim>1</dim>
				</port>
			</input>
			<output>
				<port id="2" precision="FP32" names="631">
					<dim>-1</dim>
					<dim>-1</dim>
					<dim>32</dim>
					<dim>128</dim>
				</port>
			</output>
		</layer>
		<layer id="365" name="Constant_1719" type="Const" version="opset1">
			<data element_type="i64" shape="1" offset="374885408" size="8" />
			<output>
				<port id="0" precision="I64">
					<dim>1</dim>
				</port>
			</output>
		</layer>
		<layer id="366" name="__module.model.layers.1.self_attn.q_norm/aten::mean/ReduceMean" type="ReduceMean" version="opset1">
			<data keep_dims="true" />
			<input>
…
		<edge from-layer="6995" from-port="0" to-layer="6996" to-port="1" />
		<edge from-layer="6996" from-port="2" to-layer="6998" to-port="0" />
		<edge from-layer="6997" from-port="0" to-layer="6998" to-port="1" />
		<edge from-layer="6998" from-port="2" to-layer="7000" to-port="0" />
		<edge from-layer="6999" from-port="0" to-layer="7000" to-port="1" />
		<edge from-layer="7000" from-port="2" to-layer="7001" to-port="0" />
		<edge from-layer="7001" from-port="1" to-layer="7002" to-port="1" />
		<edge from-layer="7002" from-port="2" to-layer="7003" to-port="1" />
		<edge from-layer="7003" from-port="2" to-layer="7004" to-port="1" />
		<edge from-layer="7004" from-port="2" to-layer="7015" to-port="0" />
		<edge from-layer="7004" from-port="2" to-layer="7125" to-port="0" />
		<edge from-layer="7004" from-port="2" to-layer="7068" to-port="0" />
		<edge from-layer="7005" from-port="0" to-layer="7006" to-port="0" />
		<edge from-layer="7006" from-port="1" to-layer="7009" to-port="0" />
		<edge from-layer="7007" from-port="0" to-layer="7008" to-port="0" />
		<edge from-layer="7008" from-port="1" to-layer="7009" to-port="1" />
		<edge from-layer="7009" from-port="2" to-layer="7011" to-port="0" />
		<edge from-layer="7010" from-port="0" to-layer="7011" to-port="1" />
		<edge from-layer="7011" from-port="2" to-layer="7013" to-port="0" />
		<edge from-layer="7012" from-port="0" to-layer="7013" to-port="1" />
		<edge from-layer="7013" from-port="2" to-layer="7014" to-port="0" />
		<edge from-layer="7014" from-port="1" to-layer="7015" to-port="1" />
		<edge from-layer="7015" from-port="2" to-layer="7017" to-port="0" />
		<edge from-layer="7016" from-port="0" to-layer="7017" to-port="1" />
		<edge from-layer="7017" from-port="2" to-layer="7020" to-port="0" />
		<edge from-layer="7017" from-port="2" to-layer="7027" to-port="0" />
		<edge from-layer="7018" from-port="0" to-layer="7026" to-port="0" />
		<edge from-layer="7019" from-port="0" to-layer="7020" to-port="1" />
		<edge from-layer="7020" from-port="2" to-layer="7022" to-port="0" />
		<edge from-layer="7021" from-port="0" to-layer="7022" to-port="1" />
		<edge from-layer="7022" from-port="2" to-layer="7024" to-port="0" />
		<edge from-layer="7023" from-port="0" to-layer="7024" to-port="1" />
		<edge from-layer="7024" from-port="2" to-layer="7025" to-port="0" />
		<edge from-layer="7025" from-port="1" to-layer="7026" to-port="1" />
		<edge from-layer="7026" from-port="2" to-layer="7027" to-port="1" />
		<edge from-layer="7027" from-port="2" to-layer="7028" to-port="1" />
		<edge from-layer="7028" from-port="2" to-layer="7030" to-port="0" />
		<edge from-layer="7029" from-port="0" to-layer="7030" to-port="1" />
		<edge from-layer="7030" from-port="2" to-layer="7031" to-port="0" />
		<edge from-layer="7030" from-port="2" to-layer="7036" to-port="0" />
		<edge from-layer="7030" from-port="2" to-layer="7044" to-port="0" />
		<edge from-layer="7031" from-port="2" to-layer="7047" to-port="0" />
		<edge from-layer="7032" from-port="0" to-layer="7036" to-port="1" />
		<edge from-layer="7033" from-port="0" to-layer="7036" to-port="2" />
		<edge from-layer="7034" from-port="0" to-layer="7036" to-port="3" />
		<edge from-layer="7035" from-port="0" to-layer="7036" to-port="4" />
		<edge from-layer="7036" from-port="5" to-layer="7039" to-port="0" />
		<edge from-layer="7037" from-port="0" to-layer="7038" to-port="0" />
		<edge from-layer="7038" from-port="1" to-layer="7039" to-port="1" />
		<edge from-layer="7039" from-port="2" to-layer="7045" to-port="0" />
		<edge from-layer="7040" from-port="0" to-layer="7044" to-port="1" />
		<edge from-layer="7041" from-port="0" to-layer="7044" to-port="2" />
		<edge from-layer="7042" from-port="0" to-layer="7044" to-port="3" />
		<edge from-layer="7043" from-port="0" to-layer="7044" to-port="4" />
		<edge from-layer="7044" from-port="5" to-layer="7045" to-port="1" />
		<edge from-layer="7045" from-port="2" to-layer="7046" to-port="0" />
		<edge from-layer="7046" from-port="2" to-layer="7047" to-port="1" />
		<edge from-layer="7047" from-port="2" to-layer="7135" to-port="0" />
		<edge from-layer="7048" from-port="0" to-layer="7053" to-port="0" />
		<edge from-layer="7049" from-port="0" to-layer="7052" to-port="1" />
		<edge from-layer="7050" from-port="0" to-layer="7052" to-port="2" />
		<edge from-layer="7051" from-port="0" to-layer="7052" to-port="3" />
		<edge from-layer="7052" from-port="4" to-layer="7053" to-port="1" />
		<edge from-layer="7053" from-port="2" to-layer="7054" to-port="0" />
		<edge from-layer="7054" from-port="1" to-layer="7056" to-port="0" />
		<edge from-layer="7055" from-port="0" to-layer="7056" to-port="2" />
		<edge from-layer="7056" from-port="3" to-layer="7101" to-port="0" />
		<edge from-layer="7057" from-port="0" to-layer="7081" to-port="0" />
		<edge from-layer="7058" from-port="0" to-layer="7059" to-port="0" />
		<edge from-layer="7059" from-port="1" to-layer="7062" to-port="0" />
		<edge from-layer="7060" from-port="0" to-layer="7061" to-port="0" />
		<edge from-layer="7061" from-port="1" to-layer="7062" to-port="1" />
		<edge from-layer="7062" from-port="2" to-layer="7064" to-port="0" />
		<edge from-layer="7063" from-port="0" to-layer="7064" to-port="1" />
		<edge from-layer="7064" from-port="2" to-layer="7066" to-port="0" />
		<edge from-layer="7065" from-port="0" to-layer="7066" to-port="1" />
		<edge from-layer="7066" from-port="2" to-layer="7067" to-port="0" />
		<edge from-layer="7067" from-port="1" to-layer="7068" to-port="1" />
		<edge from-layer="7068" from-port="2" to-layer="7070" to-port="0" />
		<edge from-layer="7069" from-port="0" to-layer="7070" to-port="1" />
		<edge from-layer="7070" from-port="2" to-layer="7080" to-port="0" />
		<edge from-layer="7070" from-port="2" to-layer="7073" to-port="0" />
		<edge from-layer="7071" from-port="0" to-layer="7079" to-port="0" />
		<edge from-layer="7072" from-port="0" to-layer="7073" to-port="1" />
		<edge from-layer="7073" from-port="2" to-layer="7075" to-port="0" />
		<edge from-layer="7074" from-port="0" to-layer="7075" to-port="1" />
		<edge from-layer="7075" from-port="2" to-layer="7077" to-port="0" />
		<edge from-layer="7076" from-port="0" to-layer="7077" to-port="1" />
		<edge from-layer="7077" from-port="2" to-layer="7078" to-port="0" />
		<edge from-layer="7078" from-port="1" to-layer="7079" to-port="1" />
		<edge from-layer="7079" from-port="2" to-layer="7080" to-port="1" />
		<edge from-layer="7080" from-port="2" to-layer="7081" to-port="1" />
		<edge from-layer="7081" from-port="2" to-layer="7083" to-port="0" />
		<edge from-layer="7082" from-port="0" to-layer="7083" to-port="1" />
		<edge from-layer="7083" from-port="2" to-layer="7084" to-port="0" />
		<edge from-layer="7083" from-port="2" to-layer="7097" to-port="0" />
		<edge from-layer="7083" from-port="2" to-layer="7089" to-port="0" />
		<edge from-layer="7084" from-port="2" to-layer="7100" to-port="0" />
		<edge from-layer="7085" from-port="0" to-layer="7089" to-port="1" />
		<edge from-layer="7086" from-port="0" to-layer="7089" to-port="2" />
		<edge from-layer="7087" from-port="0" to-layer="7089" to-port="3" />
		<edge from-layer="7088" from-port="0" to-layer="7089" to-port="4" />
		<edge from-layer="7089" from-port="5" to-layer="7092" to-port="0" />
		<edge from-layer="7090" from-port="0" to-layer="7091" to-port="0" />
		<edge from-layer="7091" from-port="1" to-layer="7092" to-port="1" />
		<edge from-layer="7092" from-port="2" to-layer="7098" to-port="0" />
		<edge from-layer="7093" from-port="0" to-layer="7097" to-port="1" />
		<edge from-layer="7094" from-port="0" to-layer="7097" to-port="2" />
		<edge from-layer="7095" from-port="0" to-layer="7097" to-port="3" />
		<edge from-layer="7096" from-port="0" to-layer="7097" to-port="4" />
		<edge from-layer="7097" from-port="5" to-layer="7098" to-port="1" />
		<edge from-layer="7098" from-port="2" to-layer="7099" to-port="0" />
		<edge from-layer="7099" from-port="2" to-layer="7100" to-port="1" />
		<edge from-layer="7100" from-port="2" to-layer="7101" to-port="1" />
		<edge from-layer="7101" from-port="2" to-layer="7673" to-port="0" />
		<edge from-layer="7101" from-port="2" to-layer="7102" to-port="0" />
		<edge from-layer="7102" from-port="2" to-layer="7103" to-port="0" />
		<edge from-layer="7103" from-port="2" to-layer="7105" to-port="0" />
		<edge from-layer="7104" from-port="0" to-layer="7105" to-port="1" />
		<edge from-layer="7105" from-port="2" to-layer="7135" to-port="1" />
		<edge from-layer="7106" from-port="0" to-layer="7111" to-port="0" />
		<edge from-layer="7107" from-port="0" to-layer="7110" to-port="1" />
		<edge from-layer="7108" from-port="0" to-layer="7110" to-port="2" />
		<edge from-layer="7109" from-port="0" to-layer="7110" to-port="3" />
		<edge from-layer="7110" from-port="4" to-layer="7111" to-port="1" />
		<edge from-layer="7111" from-port="2" to-layer="7112" to-port="0" />
		<edge from-layer="7112" from-port="1" to-layer="7114" to-port="0" />
		<edge from-layer="7113" from-port="0" to-layer="7114" to-port="2" />
		<edge from-layer="7114" from-port="3" to-layer="7130" to-port="0" />
		<edge from-layer="7115" from-port="0" to-layer="7116" to-port="0" />
		<edge from-layer="7116" from-port="1" to-layer="7119" to-port="0" />
		<edge from-layer="7117" from-port="0" to-layer="7118" to-port="0" />
		<edge from-layer="7118" from-port="1" to-layer="7119" to-port="1" />
		<edge from-layer="7119" from-port="2" to-layer="7121" to-port="0" />
		<edge from-layer="7120" from-port="0" to-layer="7121" to-port="1" />
		<edge from-layer="7121" from-port="2" to-layer="7123" to-port="0" />
		<edge from-layer="7122" from-port="0" to-layer="7123" to-port="1" />
		<edge from-layer="7123" from-port="2" to-layer="7124" to-port="0" />
		<edge from-layer="7124" from-port="1" to-layer="7125" to-port="1" />
		<edge from-layer="7125" from-port="2" to-layer="7127" to-port="0" />
		<edge from-layer="7126" from-port="0" to-layer="7127" to-port="1" />
		<edge from-layer="7127" from-port="2" to-layer="7129" to-port="0" />
		<edge from-layer="7128" from-port="0" to-layer="7129" to-port="1" />
		<edge from-layer="7129" from-port="2" to-layer="7130" to-port="1" />
		<edge from-layer="7130" from-port="2" to-layer="7131" to-port="0" />
		<edge from-layer="7130" from-port="2" to-layer="7674" to-port="0" />
		<edge from-layer="7131" from-port="2" to-layer="7132" to-port="0" />
		<edge from-layer="7132" from-port="2" to-layer="7134" to-port="0" />
		<edge from-layer="7133" from-port="0" to-layer="7134" to-port="1" />
		<edge from-layer="7134" from-port="2" to-layer="7135" to-port="2" />
		<edge from-layer="7135" from-port="5" to-layer="7137" to-port="0" />
		<edge from-layer="7136" from-port="0" to-layer="7137" to-port="1" />
		<edge from-layer="7137" from-port="2" to-layer="7139" to-port="0" />
		<edge from-layer="7138" from-port="0" to-layer="7139" to-port="1" />
		<edge from-layer="7139" from-port="2" to-layer="7150" to-port="0" />
		<edge from-layer="7140" from-port="0" to-layer="7141" to-port="0" />
		<edge from-layer="7141" from-port="1" to-layer="7144" to-port="0" />
		<edge from-layer="7142" from-port="0" to-layer="7143" to-port="0" />
		<edge from-layer="7143" from-port="1" to-layer="7144" to-port="1" />
		<edge from-layer="7144" from-port="2" to-layer="7146" to-port="0" />
		<edge from-layer="7145" from-port="0" to-layer="7146" to-port="1" />
		<edge from-layer="7146" from-port="2" to-layer="7148" to-port="0" />
		<edge from-layer="7147" from-port="0" to-layer="7148" to-port="1" />
		<edge from-layer="7148" from-port="2" to-layer="7149" to-port="0" />
		<edge from-layer="7149" from-port="1" to-layer="7150" to-port="1" />
		<edge from-layer="7150" from-port="2" to-layer="7151" to-port="1" />
		<edge from-layer="7151" from-port="2" to-layer="7155" to-port="0" />
		<edge from-layer="7151" from-port="2" to-layer="7199" to-port="0" />
		<edge from-layer="7151" from-port="2" to-layer="7162" to-port="0" />
		<edge from-layer="7152" from-port="0" to-layer="7163" to-port="0" />
		<edge from-layer="7153" from-port="0" to-layer="7161" to-port="0" />
		<edge from-layer="7154" from-port="0" to-layer="7155" to-port="1" />
		<edge from-layer="7155" from-port="2" to-layer="7157" to-port="0" />
		<edge from-layer="7156" from-port="0" to-layer="7157" to-port="1" />
		<edge from-layer="7157" from-port="2" to-layer="7159" to-port="0" />
		<edge from-layer="7158" from-port="0" to-layer="7159" to-port="1" />
		<edge from-layer="7159" from-port="2" to-layer="7160" to-port="0" />
		<edge from-layer="7160" from-port="1" to-layer="7161" to-port="1" />
		<edge from-layer="7161" from-port="2" to-layer="7162" to-port="1" />
		<edge from-layer="7162" from-port="2" to-layer="7163" to-port="1" />
		<edge from-layer="7163" from-port="2" to-layer="7174" to-port="0" />
		<edge from-layer="7163" from-port="2" to-layer="7186" to-port="0" />
		<edge from-layer="7164" from-port="0" to-layer="7165" to-port="0" />
		<edge from-layer="7165" from-port="1" to-layer="7168" to-port="0" />
		<edge from-layer="7166" from-port="0" to-layer="7167" to-port="0" />
		<edge from-layer="7167" from-port="1" to-layer="7168" to-port="1" />
		<edge from-layer="7168" from-port="2" to-layer="7170" to-port="0" />
		<edge from-layer="7169" from-port="0" to-layer="7170" to-port="1" />
		<edge from-layer="7170" from-port="2" to-layer="7172" to-port="0" />
		<edge from-layer="7171" from-port="0" to-layer="7172" to-port="1" />
		<edge from-layer="7172" from-port="2" to-layer="7173" to-port="0" />
		<edge from-layer="7173" from-port="1" to-layer="7174" to-port="1" />
		<edge from-layer="7174" from-port="2" to-layer="7175" to-port="0" />
		<edge from-layer="7175" from-port="1" to-layer="7187" to-port="0" />
		<edge from-layer="7176" from-port="0" to-layer="7177" to-port="0" />
		<edge from-layer="7177" from-port="1" to-layer="7180" to-port="0" />
		<edge from-layer="7178" from-port="0" to-layer="7179" to-port="0" />
		<edge from-layer="7179" from-port="1" to-layer="7180" to-port="1" />
		<edge from-layer="7180" from-port="2" to-layer="7182" to-port="0" />
		<edge from-layer="7181" from-port="0" to-layer="7182" to-port="1" />
		<edge from-layer="7182" from-port="2" to-layer="7184" to-port="0" />
		<edge from-layer="7183" from-port="0" to-layer="7184" to-port="1" />
		<edge from-layer="7184" from-port="2" to-layer="7185" to-port="0" />
		<edge from-layer="7185" from-port="1" to-layer="7186" to-port="1" />
		<edge from-layer="7186" from-port="2" to-layer="7187" to-port="1" />
		<edge from-layer="7187" from-port="2" to-layer="7198" to-port="0" />
		<edge from-layer="7188" from-port="0" to-layer="7189" to-port="0" />
		<edge from-layer="7189" from-port="1" to-layer="7192" to-port="0" />
		<edge from-layer="7190" from-port="0" to-layer="7191" to-port="0" />
		<edge from-layer="7191" from-port="1" to-layer="7192" to-port="1" />
		<edge from-layer="7192" from-port="2" to-layer="7194" to-port="0" />
		<edge from-layer="7193" from-port="0" to-layer="7194" to-port="1" />
		<edge from-layer="7194" from-port="2" to-layer="7196" to-port="0" />
		<edge from-layer="7195" from-port="0" to-layer="7196" to-port="1" />
		<edge from-layer="7196" from-port="2" to-layer="7197" to-port="0" />
		<edge from-layer="7197" from-port="1" to-layer="7198" to-port="1" />
		<edge from-layer="7198" from-port="2" to-layer="7199" to-port="1" />
		<edge from-layer="7199" from-port="2" to-layer="7211" to-port="0" />
		<edge from-layer="7199" from-port="2" to-layer="7204" to-port="0" />
		<edge from-layer="7199" from-port="2" to-layer="7359" to-port="0" />
		<edge from-layer="7200" from-port="0" to-layer="7236" to-port="0" />
		<edge from-layer="7201" from-port="0" to-layer="7212" to-port="0" />
		<edge from-layer="7202" from-port="0" to-layer="7210" to-port="0" />
		<edge from-layer="7203" from-port="0" to-layer="7204" to-port="1" />
		<edge from-layer="7204" from-port="2" to-layer="7206" to-port="0" />
		<edge from-layer="7205" from-port="0" to-layer="7206" to-port="1" />
		<edge from-layer="7206" from-port="2" to-layer="7208" to-port="0" />
		<edge from-layer="7207" from-port="0" to-layer="7208" to-port="1" />
		<edge from-layer="7208" from-port="2" to-layer="7209" to-port="0" />
		<edge from-layer="7209" from-port="1" to-layer="7210" to-port="1" />
		<edge from-layer="7210" from-port="2" to-layer="7211" to-port="1" />
		<edge from-layer="7211" from-port="2" to-layer="7212" to-port="1" />
		<edge from-layer="7212" from-port="2" to-layer="7276" to-port="0" />
		<edge from-layer="7212" from-port="2" to-layer="7223" to-port="0" />
		<edge from-layer="7212" from-port="2" to-layer="7333" to-port="0" />
		<edge from-layer="7213" from-port="0" to-layer="7214" to-port="0" />
		<edge from-layer="7214" from-port="1" to-layer="7217" to-port="0" />
		<edge from-layer="7215" from-port="0" to-layer="7216" to-port="0" />
		<edge from-layer="7216" from-port="1" to-layer="7217" to-port="1" />
		<edge from-layer="7217" from-port="2" to-layer="7219" to-port="0" />
		<edge from-layer="7218" from-port="0" to-layer="7219" to-port="1" />
		<edge from-layer="7219" from-port="2" to-layer="7221" to-port="0" />
		<edge from-layer="7220" from-port="0" to-layer="7221" to-port="1" />
		<edge from-layer="7221" from-port="2" to-layer="7222" to-port="0" />
		<edge from-layer="7222" from-port="1" to-layer="7223" to-port="1" />
		<edge from-layer="7223" from-port="2" to-layer="7225" to-port="0" />
		<edge from-layer="7224" from-port="0" to-layer="7225" to-port="1" />
		<edge from-layer="7225" from-port="2" to-layer="7228" to-port="0" />
		<edge from-layer="7225" from-port="2" to-layer="7235" to-port="0" />
		<edge from-layer="7226" from-port="0" to-layer="7234" to-port="0" />
		<edge from-layer="7227" from-port="0" to-layer="7228" to-port="1" />
		<edge from-layer="7228" from-port="2" to-layer="7230" to-port="0" />
		<edge from-layer="7229" from-port="0" to-layer="7230" to-port="1" />
		<edge from-layer="7230" from-port="2" to-layer="7232" to-port="0" />
		<edge from-layer="7231" from-port="0" to-layer="7232" to-port="1" />
		<edge from-layer="7232" from-port="2" to-layer="7233" to-port="0" />
		<edge from-layer="7233" from-port="1" to-layer="7234" to-port="1" />
		<edge from-layer="7234" from-port="2" to-layer="7235" to-port="1" />
		<edge from-layer="7235" from-port="2" to-layer="7236" to-port="1" />
		<edge from-layer="7236" from-port="2" to-layer="7238" to-port="0" />
		<edge from-layer="7237" from-port="0" to-layer="7238" to-port="1" />
		<edge from-layer="7238" from-port="2" to-layer="7252" to-port="0" />
		<edge from-layer="7238" from-port="2" to-layer="7244" to-port="0" />
		<edge from-layer="7238" from-port="2" to-layer="7239" to-port="0" />
		<edge from-layer="7239" from-port="2" to-layer="7255" to-port="0" />
		<edge from-layer="7240" from-port="0" to-layer="7244" to-port="1" />
		<edge from-layer="7241" from-port="0" to-layer="7244" to-port="2" />
		<edge from-layer="7242" from-port="0" to-layer="7244" to-port="3" />
		<edge from-layer="7243" from-port="0" to-layer="7244" to-port="4" />
		<edge from-layer="7244" from-port="5" to-layer="7247" to-port="0" />
		<edge from-layer="7245" from-port="0" to-layer="7246" to-port="0" />
		<edge from-layer="7246" from-port="1" to-layer="7247" to-port="1" />
		<edge from-layer="7247" from-port="2" to-layer="7253" to-port="0" />
		<edge from-layer="7248" from-port="0" to-layer="7252" to-port="1" />
		<edge from-layer="7249" from-port="0" to-layer="7252" to-port="2" />
		<edge from-layer="7250" from-port="0" to-layer="7252" to-port="3" />
		<edge from-layer="7251" from-port="0" to-layer="7252" to-port="4" />
		<edge from-layer="7252" from-port="5" to-layer="7253" to-port="1" />
		<edge from-layer="7253" from-port="2" to-layer="7254" to-port="0" />
		<edge from-layer="7254" from-port="2" to-layer="7255" to-port="1" />
		<edge from-layer="7255" from-port="2" to-layer="7343" to-port="0" />
		<edge from-layer="7256" from-port="0" to-layer="7261" to-port="0" />
		<edge from-layer="7257" from-port="0" to-layer="7260" to-port="1" />
		<edge from-layer="7258" from-port="0" to-layer="7260" to-port="2" />
		<edge from-layer="7259" from-port="0" to-layer="7260" to-port="3" />
		<edge from-layer="7260" from-port="4" to-layer="7261" to-port="1" />
		<edge from-layer="7261" from-port="2" to-layer="7262" to-port="0" />
		<edge from-layer="7262" from-port="1" to-layer="7264" to-port="0" />
		<edge from-layer="7263" from-port="0" to-layer="7264" to-port="2" />
		<edge from-layer="7264" from-port="3" to-layer="7309" to-port="0" />
		<edge from-layer="7265" from-port="0" to-layer="7289" to-port="0" />
		<edge from-layer="7266" from-port="0" to-layer="7267" to-port="0" />
		<edge from-layer="7267" from-port="1" to-layer="7270" to-port="0" />
		<edge from-layer="7268" from-port="0" to-layer="7269" to-port="0" />
		<edge from-layer="7269" from-port="1" to-layer="7270" to-port="1" />
		<edge from-layer="7270" from-port="2" to-layer="7272" to-port="0" />
		<edge from-layer="7271" from-port="0" to-layer="7272" to-port="1" />
		<edge from-layer="7272" from-port="2" to-layer="7274" to-port="0" />
		<edge from-layer="7273" from-port="0" to-layer="7274" to-port="1" />
		<edge from-layer="7274" from-port="2" to-layer="7275" to-port="0" />
		<edge from-layer="7275" from-port="1" to-layer="7276" to-port="1" />
		<edge from-layer="7276" from-port="2" to-layer="7278" to-port="0" />
		<edge from-layer="7277" from-port="0" to-layer="7278" to-port="1" />
		<edge from-layer="7278" from-port="2" to-layer="7288" to-port="0" />
		<edge from-layer="7278" from-port="2" to-layer="7281" to-port="0" />
		<edge from-layer="7279" from-port="0" to-layer="7287" to-port="0" />
		<edge from-layer="7280" from-port="0" to-layer="7281" to-port="1" />
		<edge from-layer="7281" from-port="2" to-layer="7283" to-port="0" />
		<edge from-layer="7282" from-port="0" to-layer="7283" to-port="1" />
		<edge from-layer="7283" from-port="2" to-layer="7285" to-port="0" />
		<edge from-layer="7284" from-port="0" to-layer="7285" to-port="1" />
		<edge from-layer="7285" from-port="2" to-layer="7286" to-port="0" />
		<edge from-layer="7286" from-port="1" to-layer="7287" to-port="1" />
		<edge from-layer="7287" from-port="2" to-layer="7288" to-port="1" />
		<edge from-layer="7288" from-port="2" to-layer="7289" to-port="1" />
		<edge from-layer="7289" from-port="2" to-layer="7291" to-port="0" />
		<edge from-layer="7290" from-port="0" to-layer="7291" to-port="1" />
		<edge from-layer="7291" from-port="2" to-layer="7305" to-port="0" />
		<edge from-layer="7291" from-port="2" to-layer="7292" to-port="0" />
		<edge from-layer="7291" from-port="2" to-layer="7297" to-port="0" />
		<edge from-layer="7292" from-port="2" to-layer="7308" to-port="0" />
		<edge from-layer="7293" from-port="0" to-layer="7297" to-port="1" />
		<edge from-layer="7294" from-port="0" to-layer="7297" to-port="2" />
		<edge from-layer="7295" from-port="0" to-layer="7297" to-port="3" />
		<edge from-layer="7296" from-port="0" to-layer="7297" to-port="4" />
		<edge from-layer="7297" from-port="5" to-layer="7300" to-port="0" />
		<edge from-layer="7298" from-port="0" to-layer="7299" to-port="0" />
		<edge from-layer="7299" from-port="1" to-layer="7300" to-port="1" />
		<edge from-layer="7300" from-port="2" to-layer="7306" to-port="0" />
		<edge from-layer="7301" from-port="0" to-layer="7305" to-port="1" />
		<edge from-layer="7302" from-port="0" to-layer="7305" to-port="2" />
		<edge from-layer="7303" from-port="0" to-layer="7305" to-port="3" />
		<edge from-layer="7304" from-port="0" to-layer="7305" to-port="4" />
		<edge from-layer="7305" from-port="5" to-layer="7306" to-port="1" />
		<edge from-layer="7306" from-port="2" to-layer="7307" to-port="0" />
		<edge from-layer="7307" from-port="2" to-layer="7308" to-port="1" />
		<edge from-layer="7308" from-port="2" to-layer="7309" to-port="1" />
		<edge from-layer="7309" from-port="2" to-layer="7310" to-port="0" />
		<edge from-layer="7309" from-port="2" to-layer="7675" to-port="0" />
		<edge from-layer="7310" from-port="2" to-layer="7311" to-port="0" />
		<edge from-layer="7311" from-port="2" to-layer="7313" to-port="0" />
		<edge from-layer="7312" from-port="0" to-layer="7313" to-port="1" />
		<edge from-layer="7313" from-port="2" to-layer="7343" to-port="1" />
		<edge from-layer="7314" from-port="0" to-layer="7319" to-port="0" />
		<edge from-layer="7315" from-port="0" to-layer="7318" to-port="1" />
		<edge from-layer="7316" from-port="0" to-layer="7318" to-port="2" />
		<edge from-layer="7317" from-port="0" to-layer="7318" to-port="3" />
		<edge from-layer="7318" from-port="4" to-layer="7319" to-port="1" />
		<edge from-layer="7319" from-port="2" to-layer="7320" to-port="0" />
		<edge from-layer="7320" from-port="1" to-layer="7322" to-port="0" />
		<edge from-layer="7321" from-port="0" to-layer="7322" to-port="2" />
		<edge from-layer="7322" from-port="3" to-layer="7338" to-port="0" />
		<edge from-layer="7323" from-port="0" to-layer="7324" to-port="0" />
		<edge from-layer="7324" from-port="1" to-layer="7327" to-port="0" />
		<edge from-layer="7325" from-port="0" to-layer="7326" to-port="0" />
		<edge from-layer="7326" from-port="1" to-layer="7327" to-port="1" />
		<edge from-layer="7327" from-port="2" to-layer="7329" to-port="0" />
		<edge from-layer="7328" from-port="0" to-layer="7329" to-port="1" />
		<edge from-layer="7329" from-port="2" to-layer="7331" to-port="0" />
		<edge from-layer="7330" from-port="0" to-layer="7331" to-port="1" />
		<edge from-layer="7331" from-port="2" to-layer="7332" to-port="0" />
		<edge from-layer="7332" from-port="1" to-layer="7333" to-port="1" />
		<edge from-layer="7333" from-port="2" to-layer="7335" to-port="0" />
		<edge from-layer="7334" from-port="0" to-layer="7335" to-port="1" />
		<edge from-layer="7335" from-port="2" to-layer="7337" to-port="0" />
		<edge from-layer="7336" from-port="0" to-layer="7337" to-port="1" />
		<edge from-layer="7337" from-port="2" to-layer="7338" to-port="1" />
		<edge from-layer="7338" from-port="2" to-layer="7339" to-port="0" />
		<edge from-layer="7338" from-port="2" to-layer="7676" to-port="0" />
		<edge from-layer="7339" from-port="2" to-layer="7340" to-port="0" />
		<edge from-layer="7340" from-port="2" to-layer="7342" to-port="0" />
		<edge from-layer="7341" from-port="0" to-layer="7342" to-port="1" />
		<edge from-layer="7342" from-port="2" to-layer="7343" to-port="2" />
		<edge from-layer="7343" from-port="5" to-layer="7345" to-port="0" />
		<edge from-layer="7344" from-port="0" to-layer="7345" to-port="1" />
		<edge from-layer="7345" from-port="2" to-layer="7347" to-port="0" />
		<edge from-layer="7346" from-port="0" to-layer="7347" to-port="1" />
		<edge from-layer="7347" from-port="2" to-layer="7358" to-port="0" />
		<edge from-layer="7348" from-port="0" to-layer="7349" to-port="0" />
		<edge from-layer="7349" from-port="1" to-layer="7352" to-port="0" />
		<edge from-layer="7350" from-port="0" to-layer="7351" to-port="0" />
		<edge from-layer="7351" from-port="1" to-layer="7352" to-port="1" />
		<edge from-layer="7352" from-port="2" to-layer="7354" to-port="0" />
		<edge from-layer="7353" from-port="0" to-layer="7354" to-port="1" />
		<edge from-layer="7354" from-port="2" to-layer="7356" to-port="0" />
		<edge from-layer="7355" from-port="0" to-layer="7356" to-port="1" />
		<edge from-layer="7356" from-port="2" to-layer="7357" to-port="0" />
		<edge from-layer="7357" from-port="1" to-layer="7358" to-port="1" />
		<edge from-layer="7358" from-port="2" to-layer="7359" to-port="1" />
		<edge from-layer="7359" from-port="2" to-layer="7363" to-port="0" />
		<edge from-layer="7359" from-port="2" to-layer="7370" to-port="0" />
		<edge from-layer="7359" from-port="2" to-layer="7407" to-port="0" />
		<edge from-layer="7360" from-port="0" to-layer="7371" to-port="0" />
		<edge from-layer="7361" from-port="0" to-layer="7369" to-port="0" />
		<edge from-layer="7362" from-port="0" to-layer="7363" to-port="1" />
		<edge from-layer="7363" from-port="2" to-layer="7365" to-port="0" />
		<edge from-layer="7364" from-port="0" to-layer="7365" to-port="1" />
		<edge from-layer="7365" from-port="2" to-layer="7367" to-port="0" />
		<edge from-layer="7366" from-port="0" to-layer="7367" to-port="1" />
		<edge from-layer="7367" from-port="2" to-layer="7368" to-port="0" />
		<edge from-layer="7368" from-port="1" to-layer="7369" to-port="1" />
		<edge from-layer="7369" from-port="2" to-layer="7370" to-port="1" />
		<edge from-layer="7370" from-port="2" to-layer="7371" to-port="1" />
		<edge from-layer="7371" from-port="2" to-layer="7382" to-port="0" />
		<edge from-layer="7371" from-port="2" to-layer="7394" to-port="0" />
		<edge from-layer="7372" from-port="0" to-layer="7373" to-port="0" />
		<edge from-layer="7373" from-port="1" to-layer="7376" to-port="0" />
		<edge from-layer="7374" from-port="0" to-layer="7375" to-port="0" />
		<edge from-layer="7375" from-port="1" to-layer="7376" to-port="1" />
		<edge from-layer="7376" from-port="2" to-layer="7378" to-port="0" />
		<edge from-layer="7377" from-port="0" to-layer="7378" to-port="1" />
		<edge from-layer="7378" from-port="2" to-layer="7380" to-port="0" />
		<edge from-layer="7379" from-port="0" to-layer="7380" to-port="1" />
		<edge from-layer="7380" from-port="2" to-layer="7381" to-port="0" />
		<edge from-layer="7381" from-port="1" to-layer="7382" to-port="1" />
		<edge from-layer="7382" from-port="2" to-layer="7383" to-port="0" />
		<edge from-layer="7383" from-port="1" to-layer="7395" to-port="0" />
		<edge from-layer="7384" from-port="0" to-layer="7385" to-port="0" />
		<edge from-layer="7385" from-port="1" to-layer="7388" to-port="0" />
		<edge from-layer="7386" from-port="0" to-layer="7387" to-port="0" />
		<edge from-layer="7387" from-port="1" to-layer="7388" to-port="1" />
		<edge from-layer="7388" from-port="2" to-layer="7390" to-port="0" />
		<edge from-layer="7389" from-port="0" to-layer="7390" to-port="1" />
		<edge from-layer="7390" from-port="2" to-layer="7392" to-port="0" />
		<edge from-layer="7391" from-port="0" to-layer="7392" to-port="1" />
		<edge from-layer="7392" from-port="2" to-layer="7393" to-port="0" />
		<edge from-layer="7393" from-port="1" to-layer="7394" to-port="1" />
		<edge from-layer="7394" from-port="2" to-layer="7395" to-port="1" />
		<edge from-layer="7395" from-port="2" to-layer="7406" to-port="0" />
		<edge from-layer="7396" from-port="0" to-layer="7397" to-port="0" />
		<edge from-layer="7397" from-port="1" to-layer="7400" to-port="0" />
		<edge from-layer="7398" from-port="0" to-layer="7399" to-port="0" />
		<edge from-layer="7399" from-port="1" to-layer="7400" to-port="1" />
		<edge from-layer="7400" from-port="2" to-layer="7402" to-port="0" />
		<edge from-layer="7401" from-port="0" to-layer="7402" to-port="1" />
		<edge from-layer="7402" from-port="2" to-layer="7404" to-port="0" />
		<edge from-layer="7403" from-port="0" to-layer="7404" to-port="1" />
		<edge from-layer="7404" from-port="2" to-layer="7405" to-port="0" />
		<edge from-layer="7405" from-port="1" to-layer="7406" to-port="1" />
		<edge from-layer="7406" from-port="2" to-layer="7407" to-port="1" />
		<edge from-layer="7407" from-port="2" to-layer="7410" to-port="0" />
		<edge from-layer="7407" from-port="2" to-layer="7558" to-port="0" />
		<edge from-layer="7407" from-port="2" to-layer="7417" to-port="0" />
		<edge from-layer="7408" from-port="0" to-layer="7416" to-port="0" />
		<edge from-layer="7409" from-port="0" to-layer="7410" to-port="1" />
		<edge from-layer="7410" from-port="2" to-layer="7412" to-port="0" />
		<edge from-layer="7411" from-port="0" to-layer="7412" to-port="1" />
		<edge from-layer="7412" from-port="2" to-layer="7414" to-port="0" />
		<edge from-layer="7413" from-port="0" to-layer="7414" to-port="1" />
		<edge from-layer="7414" from-port="2" to-layer="7415" to-port="0" />
		<edge from-layer="7415" from-port="1" to-layer="7416" to-port="1" />
		<edge from-layer="7416" from-port="2" to-layer="7417" to-port="1" />
		<edge from-layer="7417" from-port="2" to-layer="7418" to-port="1" />
		<edge from-layer="7418" from-port="2" to-layer="7455" to-port="0" />
		<edge from-layer="7418" from-port="2" to-layer="7429" to-port="0" />
		<edge from-layer="7418" from-port="2" to-layer="7501" to-port="0" />
		<edge from-layer="7419" from-port="0" to-layer="7420" to-port="0" />
		<edge from-layer="7420" from-port="1" to-layer="7423" to-port="0" />
		<edge from-layer="7421" from-port="0" to-layer="7422" to-port="0" />
		<edge from-layer="7422" from-port="1" to-layer="7423" to-port="1" />
		<edge from-layer="7423" from-port="2" to-layer="7425" to-port="0" />
		<edge from-layer="7424" from-port="0" to-layer="7425" to-port="1" />
		<edge from-layer="7425" from-port="2" to-layer="7427" to-port="0" />
		<edge from-layer="7426" from-port="0" to-layer="7427" to-port="1" />
		<edge from-layer="7427" from-port="2" to-layer="7428" to-port="0" />
		<edge from-layer="7428" from-port="1" to-layer="7429" to-port="1" />
		<edge from-layer="7429" from-port="2" to-layer="7431" to-port="0" />
		<edge from-layer="7430" from-port="0" to-layer="7431" to-port="1" />
		<edge from-layer="7431" from-port="2" to-layer="7433" to-port="0" />
		<edge from-layer="7432" from-port="0" to-layer="7433" to-port="1" />
		<edge from-layer="7433" from-port="2" to-layer="7434" to-port="1" />
		<edge from-layer="7434" from-port="2" to-layer="7678" to-port="0" />
		<edge from-layer="7434" from-port="2" to-layer="7538" to-port="0" />
		<edge from-layer="7435" from-port="0" to-layer="7440" to-port="0" />
		<edge from-layer="7436" from-port="0" to-layer="7439" to-port="1" />
		<edge from-layer="7437" from-port="0" to-layer="7439" to-port="2" />
		<edge from-layer="7438" from-port="0" to-layer="7439" to-port="3" />
		<edge from-layer="7439" from-port="4" to-layer="7440" to-port="1" />
		<edge from-layer="7440" from-port="2" to-layer="7441" to-port="0" />
		<edge from-layer="7441" from-port="1" to-layer="7443" to-port="0" />
		<edge from-layer="7442" from-port="0" to-layer="7443" to-port="2" />
		<edge from-layer="7443" from-port="3" to-layer="7488" to-port="0" />
		<edge from-layer="7444" from-port="0" to-layer="7468" to-port="0" />
		<edge from-layer="7445" from-port="0" to-layer="7446" to-port="0" />
		<edge from-layer="7446" from-port="1" to-layer="7449" to-port="0" />
		<edge from-layer="7447" from-port="0" to-layer="7448" to-port="0" />
		<edge from-layer="7448" from-port="1" to-layer="7449" to-port="1" />
		<edge from-layer="7449" from-port="2" to-layer="7451" to-port="0" />
		<edge from-layer="7450" from-port="0" to-layer="7451" to-port="1" />
		<edge from-layer="7451" from-port="2" to-layer="7453" to-port="0" />
		<edge from-layer="7452" from-port="0" to-layer="7453" to-port="1" />
		<edge from-layer="7453" from-port="2" to-layer="7454" to-port="0" />
		<edge from-layer="7454" from-port="1" to-layer="7455" to-port="1" />
		<edge from-layer="7455" from-port="2" to-layer="7457" to-port="0" />
		<edge from-layer="7456" from-port="0" to-layer="7457" to-port="1" />
		<edge from-layer="7457" from-port="2" to-layer="7460" to-port="0" />
		<edge from-layer="7457" from-port="2" to-layer="7467" to-port="0" />
		<edge from-layer="7458" from-port="0" to-layer="7466" to-port="0" />
		<edge from-layer="7459" from-port="0" to-layer="7460" to-port="1" />
		<edge from-layer="7460" from-port="2" to-layer="7462" to-port="0" />
		<edge from-layer="7461" from-port="0" to-layer="7462" to-port="1" />
		<edge from-layer="7462" from-port="2" to-layer="7464" to-port="0" />
		<edge from-layer="7463" from-port="0" to-layer="7464" to-port="1" />
		<edge from-layer="7464" from-port="2" to-layer="7465" to-port="0" />
		<edge from-layer="7465" from-port="1" to-layer="7466" to-port="1" />
		<edge from-layer="7466" from-port="2" to-layer="7467" to-port="1" />
		<edge from-layer="7467" from-port="2" to-layer="7468" to-port="1" />
		<edge from-layer="7468" from-port="2" to-layer="7470" to-port="0" />
		<edge from-layer="7469" from-port="0" to-layer="7470" to-port="1" />
		<edge from-layer="7470" from-port="2" to-layer="7471" to-port="0" />
		<edge from-layer="7470" from-port="2" to-layer="7476" to-port="0" />
		<edge from-layer="7470" from-port="2" to-layer="7484" to-port="0" />
		<edge from-layer="7471" from-port="2" to-layer="7487" to-port="0" />
		<edge from-layer="7472" from-port="0" to-layer="7476" to-port="1" />
		<edge from-layer="7473" from-port="0" to-layer="7476" to-port="2" />
		<edge from-layer="7474" from-port="0" to-layer="7476" to-port="3" />
		<edge from-layer="7475" from-port="0" to-layer="7476" to-port="4" />
		<edge from-layer="7476" from-port="5" to-layer="7479" to-port="0" />
		<edge from-layer="7477" from-port="0" to-layer="7478" to-port="0" />
		<edge from-layer="7478" from-port="1" to-layer="7479" to-port="1" />
		<edge from-layer="7479" from-port="2" to-layer="7485" to-port="0" />
		<edge from-layer="7480" from-port="0" to-layer="7484" to-port="1" />
		<edge from-layer="7481" from-port="0" to-layer="7484" to-port="2" />
		<edge from-layer="7482" from-port="0" to-layer="7484" to-port="3" />
		<edge from-layer="7483" from-port="0" to-layer="7484" to-port="4" />
		<edge from-layer="7484" from-port="5" to-layer="7485" to-port="1" />
		<edge from-layer="7485" from-port="2" to-layer="7486" to-port="0" />
		<edge from-layer="7486" from-port="2" to-layer="7487" to-port="1" />
		<edge from-layer="7487" from-port="2" to-layer="7488" to-port="1" />
		<edge from-layer="7488" from-port="2" to-layer="7677" to-port="0" />
		<edge from-layer="7488" from-port="2" to-layer="7534" to-port="0" />
		<edge from-layer="7489" from-port="0" to-layer="7617" to-port="0" />
		<edge from-layer="7490" from-port="0" to-layer="7514" to-port="0" />
		<edge from-layer="7491" from-port="0" to-layer="7492" to-port="0" />
		<edge from-layer="7492" from-port="1" to-layer="7495" to-port="0" />
		<edge from-layer="7493" from-port="0" to-layer="7494" to-port="0" />
		<edge from-layer="7494" from-port="1" to-layer="7495" to-port="1" />
		<edge from-layer="7495" from-port="2" to-layer="7497" to-port="0" />
		<edge from-layer="7496" from-port="0" to-layer="7497" to-port="1" />
		<edge from-layer="7497" from-port="2" to-layer="7499" to-port="0" />
		<edge from-layer="7498" from-port="0" to-layer="7499" to-port="1" />
		<edge from-layer="7499" from-port="2" to-layer="7500" to-port="0" />
		<edge from-layer="7500" from-port="1" to-layer="7501" to-port="1" />
		<edge from-layer="7501" from-port="2" to-layer="7503" to-port="0" />
		<edge from-layer="7502" from-port="0" to-layer="7503" to-port="1" />
		<edge from-layer="7503" from-port="2" to-layer="7506" to-port="0" />
		<edge from-layer="7503" from-port="2" to-layer="7513" to-port="0" />
		<edge from-layer="7504" from-port="0" to-layer="7512" to-port="0" />
		<edge from-layer="7505" from-port="0" to-layer="7506" to-port="1" />
		<edge from-layer="7506" from-port="2" to-layer="7508" to-port="0" />
		<edge from-layer="7507" from-port="0" to-layer="7508" to-port="1" />
		<edge from-layer="7508" from-port="2" to-layer="7510" to-port="0" />
		<edge from-layer="7509" from-port="0" to-layer="7510" to-port="1" />
		<edge from-layer="7510" from-port="2" to-layer="7511" to-port="0" />
		<edge from-layer="7511" from-port="1" to-layer="7512" to-port="1" />
		<edge from-layer="7512" from-port="2" to-layer="7513" to-port="1" />
		<edge from-layer="7513" from-port="2" to-layer="7514" to-port="1" />
		<edge from-layer="7514" from-port="2" to-layer="7516" to-port="0" />
		<edge from-layer="7515" from-port="0" to-layer="7516" to-port="1" />
		<edge from-layer="7516" from-port="2" to-layer="7522" to-port="0" />
		<edge from-layer="7516" from-port="2" to-layer="7517" to-port="0" />
		<edge from-layer="7516" from-port="2" to-layer="7530" to-port="0" />
		<edge from-layer="7517" from-port="2" to-layer="7533" to-port="0" />
		<edge from-layer="7518" from-port="0" to-layer="7522" to-port="1" />
		<edge from-layer="7519" from-port="0" to-layer="7522" to-port="2" />
		<edge from-layer="7520" from-port="0" to-layer="7522" to-port="3" />
		<edge from-layer="7521" from-port="0" to-layer="7522" to-port="4" />
		<edge from-layer="7522" from-port="5" to-layer="7525" to-port="0" />
		<edge from-layer="7523" from-port="0" to-layer="7524" to-port="0" />
		<edge from-layer="7524" from-port="1" to-layer="7525" to-port="1" />
		<edge from-layer="7525" from-port="2" to-layer="7531" to-port="0" />
		<edge from-layer="7526" from-port="0" to-layer="7530" to-port="1" />
		<edge from-layer="7527" from-port="0" to-layer="7530" to-port="2" />
		<edge from-layer="7528" from-port="0" to-layer="7530" to-port="3" />
		<edge from-layer="7529" from-port="0" to-layer="7530" to-port="4" />
		<edge from-layer="7530" from-port="5" to-layer="7531" to-port="1" />
		<edge from-layer="7531" from-port="2" to-layer="7532" to-port="0" />
		<edge from-layer="7532" from-port="2" to-layer="7533" to-port="1" />
		<edge from-layer="7533" from-port="2" to-layer="7542" to-port="0" />
		<edge from-layer="7534" from-port="2" to-layer="7535" to-port="0" />
		<edge from-layer="7535" from-port="2" to-layer="7537" to-port="0" />
		<edge from-layer="7536" from-port="0" to-layer="7537" to-port="1" />
		<edge from-layer="7537" from-port="2" to-layer="7542" to-port="1" />
		<edge from-layer="7538" from-port="2" to-layer="7539" to-port="0" />
		<edge from-layer="7539" from-port="2" to-layer="7541" to-port="0" />
		<edge from-layer="7540" from-port="0" to-layer="7541" to-port="1" />
		<edge from-layer="7541" from-port="2" to-layer="7542" to-port="2" />
		<edge from-layer="7542" from-port="5" to-layer="7544" to-port="0" />
		<edge from-layer="7543" from-port="0" to-layer="7544" to-port="1" />
		<edge from-layer="7544" from-port="2" to-layer="7546" to-port="0" />
		<edge from-layer="7545" from-port="0" to-layer="7546" to-port="1" />
		<edge from-layer="7546" from-port="2" to-layer="7557" to-port="0" />
		<edge from-layer="7547" from-port="0" to-layer="7548" to-port="0" />
		<edge from-layer="7548" from-port="1" to-layer="7551" to-port="0" />
		<edge from-layer="7549" from-port="0" to-layer="7550" to-port="0" />
		<edge from-layer="7550" from-port="1" to-layer="7551" to-port="1" />
		<edge from-layer="7551" from-port="2" to-layer="7553" to-port="0" />
		<edge from-layer="7552" from-port="0" to-layer="7553" to-port="1" />
		<edge from-layer="7553" from-port="2" to-layer="7555" to-port="0" />
		<edge from-layer="7554" from-port="0" to-layer="7555" to-port="1" />
		<edge from-layer="7555" from-port="2" to-layer="7556" to-port="0" />
		<edge from-layer="7556" from-port="1" to-layer="7557" to-port="1" />
		<edge from-layer="7557" from-port="2" to-layer="7558" to-port="1" />
		<edge from-layer="7558" from-port="2" to-layer="7562" to-port="0" />
		<edge from-layer="7558" from-port="2" to-layer="7606" to-port="0" />
		<edge from-layer="7558" from-port="2" to-layer="7569" to-port="0" />
		<edge from-layer="7559" from-port="0" to-layer="7570" to-port="0" />
		<edge from-layer="7560" from-port="0" to-layer="7568" to-port="0" />
		<edge from-layer="7561" from-port="0" to-layer="7562" to-port="1" />
		<edge from-layer="7562" from-port="2" to-layer="7564" to-port="0" />
		<edge from-layer="7563" from-port="0" to-layer="7564" to-port="1" />
		<edge from-layer="7564" from-port="2" to-layer="7566" to-port="0" />
		<edge from-layer="7565" from-port="0" to-layer="7566" to-port="1" />
		<edge from-layer="7566" from-port="2" to-layer="7567" to-port="0" />
		<edge from-layer="7567" from-port="1" to-layer="7568" to-port="1" />
		<edge from-layer="7568" from-port="2" to-layer="7569" to-port="1" />
		<edge from-layer="7569" from-port="2" to-layer="7570" to-port="1" />
		<edge from-layer="7570" from-port="2" to-layer="7581" to-port="0" />
		<edge from-layer="7570" from-port="2" to-layer="7593" to-port="0" />
		<edge from-layer="7571" from-port="0" to-layer="7572" to-port="0" />
		<edge from-layer="7572" from-port="1" to-layer="7575" to-port="0" />
		<edge from-layer="7573" from-port="0" to-layer="7574" to-port="0" />
		<edge from-layer="7574" from-port="1" to-layer="7575" to-port="1" />
		<edge from-layer="7575" from-port="2" to-layer="7577" to-port="0" />
		<edge from-layer="7576" from-port="0" to-layer="7577" to-port="1" />
		<edge from-layer="7577" from-port="2" to-layer="7579" to-port="0" />
		<edge from-layer="7578" from-port="0" to-layer="7579" to-port="1" />
		<edge from-layer="7579" from-port="2" to-layer="7580" to-port="0" />
		<edge from-layer="7580" from-port="1" to-layer="7581" to-port="1" />
		<edge from-layer="7581" from-port="2" to-layer="7582" to-port="0" />
		<edge from-layer="7582" from-port="1" to-layer="7594" to-port="0" />
		<edge from-layer="7583" from-port="0" to-layer="7584" to-port="0" />
		<edge from-layer="7584" from-port="1" to-layer="7587" to-port="0" />
		<edge from-layer="7585" from-port="0" to-layer="7586" to-port="0" />
		<edge from-layer="7586" from-port="1" to-layer="7587" to-port="1" />
		<edge from-layer="7587" from-port="2" to-layer="7589" to-port="0" />
		<edge from-layer="7588" from-port="0" to-layer="7589" to-port="1" />
		<edge from-layer="7589" from-port="2" to-layer="7591" to-port="0" />
		<edge from-layer="7590" from-port="0" to-layer="7591" to-port="1" />
		<edge from-layer="7591" from-port="2" to-layer="7592" to-port="0" />
		<edge from-layer="7592" from-port="1" to-layer="7593" to-port="1" />
		<edge from-layer="7593" from-port="2" to-layer="7594" to-port="1" />
		<edge from-layer="7594" from-port="2" to-layer="7605" to-port="0" />
		<edge from-layer="7595" from-port="0" to-layer="7596" to-port="0" />
		<edge from-layer="7596" from-port="1" to-layer="7599" to-port="0" />
		<edge from-layer="7597" from-port="0" to-layer="7598" to-port="0" />
		<edge from-layer="7598" from-port="1" to-layer="7599" to-port="1" />
		<edge from-layer="7599" from-port="2" to-layer="7601" to-port="0" />
		<edge from-layer="7600" from-port="0" to-layer="7601" to-port="1" />
		<edge from-layer="7601" from-port="2" to-layer="7603" to-port="0" />
		<edge from-layer="7602" from-port="0" to-layer="7603" to-port="1" />
		<edge from-layer="7603" from-port="2" to-layer="7604" to-port="0" />
		<edge from-layer="7604" from-port="1" to-layer="7605" to-port="1" />
		<edge from-layer="7605" from-port="2" to-layer="7606" to-port="1" />
		<edge from-layer="7606" from-port="2" to-layer="7609" to-port="0" />
		<edge from-layer="7606" from-port="2" to-layer="7616" to-port="0" />
		<edge from-layer="7607" from-port="0" to-layer="7615" to-port="0" />
		<edge from-layer="7608" from-port="0" to-layer="7609" to-port="1" />
		<edge from-layer="7609" from-port="2" to-layer="7611" to-port="0" />
		<edge from-layer="7610" from-port="0" to-layer="7611" to-port="1" />
		<edge from-layer="7611" from-port="2" to-layer="7613" to-port="0" />
		<edge from-layer="7612" from-port="0" to-layer="7613" to-port="1" />
		<edge from-layer="7613" from-port="2" to-layer="7614" to-port="0" />
		<edge from-layer="7614" from-port="1" to-layer="7615" to-port="1" />
		<edge from-layer="7615" from-port="2" to-layer="7616" to-port="1" />
		<edge from-layer="7616" from-port="2" to-layer="7617" to-port="1" />
		<edge from-layer="7617" from-port="2" to-layer="7618" to-port="0" />
		<edge from-layer="7618" from-port="2" to-layer="7691" to-port="0" />
	</edges>
	<rt_info>
		<Runtime_version value="2026.1.0-21367-63e31528c62-releases/2026/1" />
		<conversion_parameters>
			<framework value="pytorch" />
			<is_python_object value="True" />
		</conversion_parameters>
		<nncf>
			<friendly_names_were_updated value="True" />
			<version value="3.1.0" />
			<weight_compression>
				<advanced_parameters value="{'statistics_path': None, 'lora_adapter_rank': 256, 'group_size_fallback_mode': 'error', 'min_adjusted_group_size': 32, 'awq_params': {'subset_size': 32, 'percent_to_apply': 0.002, 'alpha_min': 0.0, 'alpha_max': 1.0, 'steps': 100, 'prefer_data_aware_scaling': True}, 'scale_estimation_params': {'subset_size': 64, 'initial_steps': 5, 'scale_steps': 5, 'weight_penalty': -1.0}, 'gptq_params': {'damp_percent': 0.1, 'block_size': 128, 'subset_size': 128}, 'lora_correction_params': {'adapter_rank': 8, 'num_iterations': 3, 'apply_regularization': True, 'subset_size': 128, 'use_int8_adapters': True}, 'backend_params': {}, 'codebook': None, 'adaptive_codebook_params': {'value_type': 'f8e4m3', 'across_blocks': False, 'num_elements': 16}}" />
				<all_layers value="False" />
				<awq value="False" />
				<backup_mode value="int8_asym" />
				<compression_format value="dequantize" />
				<gptq value="False" />
				<group_size value="128" />
				<ignored_scope value="[]" />
				<lora_correction value="False" />
				<mode value="int4_asym" />
				<ratio value="1.0" />
				<scale_estimation value="False" />
				<sensitivity_metric value="weight_quantization_error" />
			</weight_compression>
		</nncf>
		<optimum>
			<nncf_version value="3.1.0" />
			<optimum_intel_version value="1.27.0" />
			<optimum_version value="2.1.0" />
			<pytorch_version value="2.5.1+cu121" />
			<transformers_version value="4.57.6" />
		</optimum>
		<runtime_options>
			<ACTIVATIONS_SCALE_FACTOR value="8.0" />
		</runtime_options>
	</rt_info>
</net>
